OnlineJudge/ai/dl_models/gnn/knowledge_graph_model.pth (torch, 82097 bytes, 14 tensors)

convs.0.bias f4 [128]
-7.0404626e-06 -1.9111076e-06 -1.4088929e-05 -1.7612966e-06 1.8099883e-05 -1.0058418e-06 -4.8908805e-07 -1.3198027e-05
1.5633314e-06 1.0721158e-05 1.2972587e-05 -4.9632495e-06 -1.7615241e-06 -8.702069e-06 -9.410403e-06 4.5682614e-06
4.884323e-06 -2.4941313e-05 -2.8571808e-06 -1.3464414e-05 -7.4499567e-06 6.6594853e-06 -4.848685e-05 3.1074073e-06
-8.464219e-06 9.053118e-07 -3.376212e-06 -9.3368835e-06 1.0929589e-06 1.9080304e-05 7.2245034e-06 -2.433228e-06
-6.4817054e-06 8.350594e-06 -2.7875913e-05 2.5314184e-06 -4.113631e-07 6.6638713e-06 -9.623741e-07 2.510454e-05
4.6668138e-06 -1.6872844e-05 1.2886982e-05 4.1831827e-06 3.6668098e-07 4.1878243e-07 -4.6682762e-06 4.6862774e-06
-9.3916697e-07 -3.2789048e-06 -1.4485323e-05 -8.445872e-06 -2.6610192e-06 2.1843784e-05 3.2496619e-06 -1.9499744e-06
-4.5437373e-06 8.212868e-07 -7.537703e-06 1.5199581e-05 3.5977753e-06 -6.001025e-06 -3.9103575e-06 8.0181435e-06
-3.6697484e-06 2.2076803e-05 1.0061464e-05 3.5544777e-05 -3.4534633e-06 -4.0977984e-06 9.48275e-06 -1.0251459e-05
6.8015897e-06 6.15834e-07 8.920382e-06 1.3012684e-06 4.062951e-06 -3.365968e-06 -1.0520489e-05 9.543242e-06
9.350214e-06 -7.392813e-06 2.7192185e-05 -2.5002698e-06 5.224521e-06 1.9106856e-06 -8.470737e-06 -8.325753e-06
2.195954e-06 -9.368445e-06 -2.9619016e-05 1.8584833e-06 1.9138752e-06 1.4804307e-05 -1.5396636e-06 2.9505673e-06
-1.6911281e-06 3.0507044e-06 1.31093475e-05 2.1712663e-06 2.9829253e-05 -4.231857e-05 1.359474e-06 9.608615e-06
-1.490789e-06 -9.666637e-06 -9.0493774e-07 7.5852104e-06 5.434377e-06 -4.525742e-06 5.420143e-07 -3.4969298e-06
-7.1633276e-06 4.5043707e-06 -6.759531e-06 -3.0777935e-06 1.7512133e-07 -2.066746e-07 -4.2756856e-06 1.4685847e-06
4.6909023e-05 -1.08547056e-07 2.194351e-05 -5.661791e-06 1.0101636e-05 9.5831665e-06 3.3215217e-06 4.2566023e-07
00000000: 1d3d ecb6 9440 00b6 7d5f 6cb7 b165 ecb5
00000010: 34d5 9737 7600 87b5 e049 03b5 186d 5db7
00000020: a8d3 d135 06df 3337 d6a4 5937 fd89 a6b6
00000030: 826d ecb5 1aff 11b7 60e1 1db7 1149 9936
00000040: 04e4 a336 1039 d1b7 febd 3fb6 38e5 61b7
00000050: a4fa f9b6 8b74 df36 5c5e 4bb8 da88 5036
00000060: 8b01 0eb7 8e04 7335 e192 62b6 9ca5 1cb7
00000070: c8b1 9235 a40e a037 036a f236 8a4a 23b6
00000080: 6d7d d9b6 8719 0c37 11d7 e9b7 70e1 2936
00000090: 50d9 dcb4 389a df36 ec2a 81b5 9797 d237
000000a0: a097 9c36 288a 8db7 2b35 5837 445d 8c36
000000b0: 40dc c434 05d5 e034 30a4 9cb6 d13e 9d36
000000c0: 101b 7cb5 280b 5cb6 fd05 73b7 beb2 0db7
000000d0: f693 32b6 2b3d b737 c414 5a36 4edc 02b6
000000e0: 6876 98b6 6676 5c35 60ec fcb6 b401 7f37
000000f0: 4f71 7136 6a5c c9b6 b735 83b6 aa85 0637
00000100: cc45 76b6 9331 b937 a9cd 2837 ea15 1538
00000110: 0cc2 67b6 d27f 89b6 1a18 1f37 aefd 2bb7
00000120: 3639 e436 ca4f 2535 c0a8 1537 3ea7 ae35
00000130: 7c54 8836 e4e2 61b6 2881 30b7 ea1b 2037
00000140: ddde 1c37 c80f f8b6 c61a e437 4fca 27b6
00000150: 4b4e af36 5439 0036 8a1d 0eb7 d6ae 0bb7
00000160: 345e 1336 2a2d 1db7 5a76 f8b7 0071 f935
00000170: 2070 0036 0460 7837 70a6 ceb5 5c02 4636
00000180: b8fa e2b5 b4ba 4c36 38f0 5b37 12b6 1136
00000190: d539 fa37 387f 31b8 2c77 b635 b034 2137
000001a0: 1f17 c8b5 e42d 22b7 d9ea 72b5 7684 fe36
000001b0: f158 b636 d4db 97b6 f07e 1135 ccac 6ab6
000001c0: 845c f0b6 4024 9736 eecf e2b6 178c 4eb6
000001d0: fc08 3c34 48ea 5db4 dc77 8fb6 301c c535
000001e0: 2ec0 4438 601a e9b3 5413 b837 6afa bdb6
000001f0: 327a 2937 63c7 2037 4fe7 5e36 4c86 e434

convs.0.lin.weight f4 [128, 6]
-0.13221996 0.15735191 0.029735979 0.07146455 0.012921198 -0.22977294 0.06750887 -0.06894198
-0.19876789 -0.042553384 -0.16489092 0.09825857 -0.21264207 -0.038927034 -0.14624447 0.09106613
0.12560083 -0.20270719 -0.06062852 0.21370211 -0.1279078 -0.2752583 0.24960372 -0.10288947
0.1627201 -0.039383456 0.07367531 -0.0857556 -0.07646021 0.10323506 0.042272173 0.05896179
-0.12697798 0.12481863 0.066993915 0.17441107 -0.21451396 0.103777386 -0.02096245 0.031733073
0.15014936 -0.22248022 0.21320987 -0.102993295 0.14822154 -0.18476106 0.021180196 0.22552611
-0.021887198 0.01732006 -0.13609672 0.19256574 0.01216193 0.1225332 -0.15831494 0.19164513
0.11707251 0.15019451 -0.18841986 0.18943541 -0.126143 -0.18912742 0.1806867 0.0050793956
0.19243896 0.14571081 0.15527125 0.007842603 0.09701923 0.118082866 -0.03564322 -0.060406
0.085796975 0.06607066 -0.17675601 -0.22313401 -0.14086471 -0.13489117 0.057470694 0.06891382
-0.011848613 -0.109797254 0.05965523 0.064421445 0.15543911 0.117872365 -0.005163385 0.07350325
-0.17962952 -0.045049187 0.10240861 -0.12440483 -0.14324152 0.056438778 -0.09405561 -0.015577283
-0.010479954 0.007009447 -0.13264927 -0.14555137 0.02740157 0.13659571 -0.14283915 0.07596905
-0.16156156 -0.14135998 -0.042842776 -0.13849431 -0.01854275 0.20332481 0.1696797 0.12418819
0.16811733 0.059801146 0.071725614 -0.063523404 0.13798846 0.16684426 0.107814595 0.21658137
-0.17206194 -0.04240677 -0.15034984 -0.19738023 -0.22783807 0.046914253 0.08392408 0.11438288
-0.05816459 -0.11274807 0.1134477 -0.053551044 0.023085874 -0.14097232 -0.13125435 0.010381723
0.030941937 -0.2152918 -0.19941664 0.027064897 -0.15369698 -0.17015587 0.08847389 -0.14052063
-0.0052875034 -0.08304702 0.15600069 0.04311361 -0.18462949 0.1837115 -0.11968315 0.17328729
0.16184528 -0.10339125 -0.06671192 -0.043110557 -0.08068037 -0.16446893 -0.19668958 0.03387516
0.07163314 0.09352903 0.014882373 0.17956355 -0.102730885 0.12660527 0.18035595 0.10560915
-0.0810687 0.06721562 -0.09586626 -0.01029925 -0.14621986 0.16246378 -0.135132 -0.16433378
-0.027569057 -0.12707193 0.07657815 -0.034081966 0.13517758 0.15356289 0.06034943 -0.20953695
0.07606706 -0.17307106 0.15472895 0.20259711 0.14246486 -0.03858025 -0.06370621 -0.16703959
0.04865453 0.19265729 0.1571482 0.17203651 -0.081437185 -0.08172887 0.049193583 -0.025330214
0.045510083 -0.003908725 -0.061260004 -0.09552044 -0.051534466 -0.15228015 -0.12871055 -0.032669287
-0.046893742 0.16996452 -0.18585435 -0.05534149 0.096125536 -0.07739983 0.19187716 -0.06040204
0.099113286 0.104697995 0.051479254 -0.10062256 -0.109272525 -0.0651579 0.16802615 0.22119106
0.090404354 0.0030123803 -0.11439988 0.0059192665 -0.27730292 -0.0005171487 -0.11922856 0.01835018
0.23787574 -0.13777629 -0.007301232 -0.037568927 -0.053792067 -0.058747895 0.16859269 0.07032259
0.06582826 0.121954076 0.17355016 0.023161873 0.005048599 0.20872743 -0.02009434 -0.0967785
0.04887555 0.11815289 -0.08818896 0.12853836 -0.11131233 0.12502143 -0.0022544663 -0.08290221
00000000: ab64 07be dc20 213e de98 f33c 025c 923d
00000010: 6fb3 533c 9949 6bbe 1742 8a3d 7431 8dbd
00000020: cf89 4bbe 754c 2ebd 2ad9 28be ca3b c93d
00000030: d8be 59be f471 1fbd 1cc1 15be e180 ba3d
00000040: 819d 003e 7992 4fbe 9c55 78bd bad4 5a3e
00000050: 43fa 02be a8ee 8cbe 1e98 7f3e b7b7 d2bd
00000060: 19a0 263e 8c50 21bd 15e3 963d a2a0 afbd
00000070: 2c97 9cbd e76c d33d 9625 2d3d eb81 713d
00000080: 8406 02be e9a0 ff3d 1b34 893d d198 323e
00000090: 8ca9 5bbe 3d89 d43d 72b9 abbc 8afa 013d
000000a0: c1c0 193e dbd1 63be b053 5a3e 26ee d2bd
000000b0: 63c7 173e 0132 3dbe 1782 ad3c 51f0 663e
000000c0: c84c b3bc cce2 8d3c f05c 0bbe f42f 453e
000000d0: d542 473c b0f2 fa3d 501d 22be 9f3e 443e
000000e0: b6c3 ef3d 97cc 193e 23f1 40be 5bfb 413e
000000f0: a12b 01be 9eaa 41be ef05 393e 0f71 a63b
00000100: b80e 453e 3735 153e 6dff 1e3e 437e 003c
00000110: 05b2 c63d 6ed5 f13d a0fe 11bd 486c 77bd
00000120: 53b6 af3d 0e50 873d 87ff 34be 3e7d 64be
00000130: d73e 10be e920 0abe 6466 6b3d b022 8d3d
00000140: af20 42bc 62dd e0bd 0b59 743d 64ef 833d
00000150: 6e2b 1f3e 1167 f13d 9d31 a9bb df88 963d
00000160: cdf0 37be 7f85 38bd 9bbb d13d f6c7 febd
00000170: e8ad 12be 592c 673d 3aa0 c0bd dc37 7fbc
00000180: 1db4 2bbc 81af e53b 36d5 07be 6b0b 15be
00000190: 4279 e03c bfdf 0b3e 6d44 12be a995 9b3d
000001a0: 6570 25be acc0 10be e87b 2fbd 74d1 0dbe
000001b0: f7e6 97bc 6134 503e 84c0 2d3e 6156 fe3d
000001c0: f326 2c3e 0cf2 743d e1e4 923d 8f18 82bd
000001d0: d94c 0d3e 39d9 2a3e e6cd dc3d 82c7 5d3e
000001e0: 0131 30be b9b2 2dbd 4ff5 19be 0b1e 4abe
000001f0: 624e 69be 2929 403d 63e0 ab3d 9241 ea3d
00000200: fe3d 6ebd 76e8 e6bd 4557 e83d 5758 5bbd
00000210: 961e bd3c 0c5b 10be 8a67 06be 1a18 2a3c
00000220: f279 fd3c 7475 5cbe e033 4cbe 34b7 dd3c
00000230: be62 1dbe 573d 2ebe cd31 b53d a4e4 0fbe
00000240: cb42 adbb 8e14 aabd a5be 1f3e e697 303d
00000250: 830f 3dbe de1e 3c3e 701c f5bd 3972 313e
00000260: c5ba 253e cbbe d3bd 42a0 88bd b294 30bd
00000270: c03b a5bd 8b6a 28be fe68 49be aec0 0a3d
00000280: 65b4 923d 268c bf3d 32d5 733c 82df 373e
00000290: 9264 d2bd d0a4 013e 3baf 383e 9c49 d83d
000002a0: 5907 a6bd 58a8 893d 8855 c4bd 2fbe 28bc
000002b0: a9ba 15be e85c 263e 0b60 0abe 1d47 28be
000002c0: 81d8 e1bc 251f 02be 01d5 9c3d 8899 0bbd
000002d0: fe6b 0a3e 973f 1d3e f730 773d db90 56be
000002e0: 0cc9 9b3d 8a39 31be 4471 1e3e 9e75 4f3e
000002f0: 4fe2 113e 5306 1ebd 6778 82bd 6d0c 2bbe
00000300: f949 473d f447 453e 75eb 203e 572a 303e
00000310: 8ac8 a6bd 7761 a7bd 367f 493d 4f81 cfbc
00000320: c868 3a3d c314 80bb c5eb 7abd 38a0 c3bd
00000330: ce15 53bd 54ef 1bbe b3cc 03be 3bd0 05bd
00000340: a713 40bd 2e0b 2e3e 9a50 3ebe c2ad 62bd
00000350: 77dd c43d cd83 9ebd 727b 443e 2168 77bd
00000360: e8fb ca3d e76b d63d e9db 523d 3313 cebd
00000370: 46ca dfbd 8171 85bd 0c0f 2c3e e97f 623e
00000380: eb25 b93d 5b6b 453b 7c4a eabd 68f6 c13b
00000390: a6fa 8dbe 4391 07ba 1a2e f4bd 1e53 963c
000003a0: b395 733e 3a15 0dbe 2c3f efbb e0e1 19bd
000003b0: 1255 5cbd a2a1 70bd 90a3 2c3e 4a05 903d
000003c0: f7d0 863d 0fc3 f93d 22b7 313e f8bd bd3c
000003d0: b86e a53b a5bc 553e e39c a4bc ce33 c6bd
000003e0: bb31 483d 24fa f13d 6a9c b4bd 8f9f 033e
000003f0: b8f7 e3bd 9e05 003e abbf 13bb a2c8 a9bd

convs.1.bias f4 [128]
-0.039179172 0.022704188 0.030398251 0.034171797 -0.021103622 -0.040888883 -0.045031324 -0.04383567
0.036804397 -0.037881266 -0.035447456 0.03828915 -0.05307584 0.037334442 -0.036311764 -0.03202747
-0.03764509 0.034531604 -0.029943906 -0.042212166 0.029478246 -0.011115349 -0.022423388 -0.017188624
0.030218521 -0.027004806 -0.014713812 -0.040183567 -0.015600051 -0.037455473 0.036661185 0.01912863
-0.02324622 0.034875304 0.03143479 0.021712605 -0.030225238 0.040819064 -0.030136166 -0.039168257
0.022444127 -0.031370487 0.032100517 -0.035310496 -0.037349235 0.016586807 0.04516141 0.023305709
0.028702524 0.031535123 -0.03466513 -0.024848191 0.028457593 0.0013720515 0.04290709 -0.03417759
-0.025856335 -0.041679423 -0.038909335 -0.03073407 -0.03309367 -0.017064072 -0.031968877 0.03511656
-0.02185819 -0.037253916 -0.046597224 0.034249276 -0.03463771 -0.03627251 -0.002902312 0.04089133
0.040270664 -0.027566716 -0.036116827 -0.04231738 0.036895406 0.0021776047 0.029495064 0.04041253
0.043838963 0.036239773 0.04221671 0.061088484 0.033960603 0.038532186 -0.035558574 -0.040355664
0.030952996 0.03777341 0.0013782274 -0.04162079 0.021045152 -0.030815741 -0.022094458 -0.02984328
0.024930196 0.012074264 -0.0373114 -0.023529338 -0.044666052 0.033590164 -0.017899603 -0.03947372
-0.03489618 -0.0384162 -0.035934012 -0.043376654 -0.03191223 -0.045087133 -0.042260673 -0.020311642
0.03691183 -0.027157605 0.034665044 0.031528365 0.036240675 0.051338643 -0.029769266 -0.026339043
-0.029933363 -0.035742 0.039743435 0.028723069 0.03449117 -0.033818174 -0.03777607 -0.00867309
00000000: 577a 20bd 22fe b93c c105 f93c baf7 0b3d
00000010: 81e1 acbc 1a7b 27bd c472 38bd 088d 33bd
00000020: 35c0 163d 6329 1bbd 5a31 11bd 15d5 1c3d
00000030: 0d66 59bd 00ec 183d a5bb 14bd 3d2f 03bd
00000040: bd31 1abd 0371 0d3d ec4c f5bc aae6 2cbd
00000050: 5d7c f13c 271d 36bc 41b1 b7bc 28cf 8cbc
00000060: d58c f73c 2f39 ddbc 3312 71bc 8697 24bd
00000070: 5b97 7fbc e96a 19bd 0a2a 163d a5b3 9c3c
00000080: db6e bebc 68d9 0e3d c4c1 003d a2de b13c
00000090: eb9a f7bc e431 273d 1fe0 f6bc e56e 20bd
000000a0: bfdc b73c 577e 00bd d57b 033d bda1 10bd
000000b0: 83fb 18bd 0ee1 873c 2cfb 383d 9deb be3c
000000c0: 8e21 eb3c f92a 013d 06fd 0dbd 6f8e cbbc
000000d0: e61f e93c 69d6 b33a 58bf 2f3d cdfd 0bbd
000000e0: aad0 d3bc 0bb8 2abd 655f 1fbd 04c6 fbbc
000000f0: 3a8d 07bd f4c9 8bbc ccf1 02bd 62d6 0f3d
00000100: f20f b3bc 9097 18bd bbdc 3ebd f848 0c3d
00000110: 45e0 0dbd 7c92 14bd b734 3ebb ab7d 273d
00000120: daf2 243d 98d3 e1bc 3def 13bd fd54 2dbd
00000130: a31f 173d 25b6 0e3b a29f f13c 9c87 253d
00000140: 7c90 333d 2870 143d 6eeb 2c3d eb37 7a3d
00000150: 461a 0b3d edd3 1d3d dea5 11bd fb4b 25bd
00000160: 2391 fd3c 4bb8 1a3d a3a5 b43a 907a 2abd
00000170: e266 ac3c 4b71 fcbc 70ff b4bc e579 f4bc
00000180: 693a cc3c 22d3 453c d7d3 18bd 99c0 c0bc
00000190: c0f3 36bd d795 093d 30a2 92bc 32af 21bd
000001a0: 4cef 0ebd 4e5a 1dbd 8b2f 13bd b8ab 31bd
000001b0: 66b6 02bd 49ad 38bd 8719 2dbd 9a64 a6bc
000001c0: dc30 173d a079 debc effc 0d3d e323 013d
000001d0: 1a71 143d 7848 523d adde f3bc fac4 d7bc
000001e0: d036 f5bc 3466 12bd 03ca 223d a44c eb3c
000001f0: 9d46 0d3d ed84 0abd 15bb 1abd 9319 0ebc

convs.1.lin.weight f4 [128, 128]
-0.083514474 -0.033730917 -0.026800843 0.073152736 -0.041374557 -0.113257 0.028637754 0.123530366
0.100126475 -0.06778252 -0.068330556 -0.0043115495 0.035266526 0.0026192283 0.079724394 -0.14287728
-0.14353326 0.020892128 -0.026121873 0.05128236 -0.030467302 -0.004163849 0.09235549 -0.13155513
-0.055081043 -0.16882491 -0.011401802 -0.1228798 -0.10783894 -0.12556571 0.020885827 0.030069401
0.1011007 0.10600641 0.036911584 0.10079102 -0.16920549 -0.101913884 0.07365652 0.11101061
0.10066842 0.0634876 -0.039674126 0.017165413 0.042102862 -0.030031502 0.06866472 -0.05974198
0.022782903 -0.024438567 0.060804702 0.13665847 -0.1524542 -0.061421238 0.09240998 0.037029855
-0.14132799 -0.1531475 -0.04677489 0.05384855 0.05888797 -0.0025477023 -0.027245004 -0.065371305
-0.0029971565 -0.14872333 0.122085124 0.14543876 0.067053355 -0.16772637 -0.07501975 -0.028785912
0.12215354 0.086224265 0.061950445 0.0742649 0.11540017 -0.054910127 0.042514965 0.06959251
0.09598318 -0.065394446 -0.056127857 -0.1482571 0.022402171 -0.12442573 -0.07471733 -0.13845448
-0.00039400544 0.0752065 -0.07692618 -0.08580399 -0.0455053 -0.16609615 -0.17361584 -0.14099793
-0.032739058 0.034976214 -0.084518366 -0.07869005 0.13335672 -0.0973783 0.06531166 0.06387172
-0.1503621 -0.074973434 -0.087648906 0.11339427 -0.1119389 -0.07055672 0.092681065 0.07738525
0.0024792117 -0.10478733 0.009803752 -0.10783383 0.122757 0.064168885 0.14885692 -0.13961363
-0.15417516 -0.07520218 0.11924399 0.0012912006 0.03192518 0.12618342 -0.088387765 0.10388463
0.10423458 -0.12395136 -0.05346479 0.12499792 -0.11544441 -0.056297854 0.028776718 0.1507343
-0.11402182 -0.084559955 0.02912421 0.045852743 0.06249363 -0.109746106 0.07750991 0.009177721
0.027139971 0.0002947043 0.11039536 -0.024166992 -0.07426562 -0.008057907 0.0052656904 0.08145724
-0.10112701 0.1017351 0.01010536 -0.056398015 0.055102684 0.033506196 -0.044656005 0.05281798
-0.08099809 0.039489828 0.045527764 0.035556737 -0.09863103 -0.11691245 -0.058213018 0.0752171
0.033306878 0.042995147 -0.114354655 -0.13889606 0.1234051 -0.011233617 0.089061774 0.054835703
-0.054083414 -0.13405336 0.06421468 0.087925814 -0.08011961 -0.061239276 -0.108938076 -0.08354516
0.11045833 -0.020752465 -0.029027162 0.0610814 -0.1033722 -0.07557298 0.11307952 -0.098924436
-0.0063181077 -0.03346592 -0.017845722 -0.14080708 0.07610801 0.037324715 -0.014236019 -0.08543602
0.027640248 0.030782925 0.010548316 0.11807816 -0.09607705 0.092543945 0.02714733 0.009935595
-0.079626985 -0.061469734 0.051100746 0.0019518642 -0.09937404 0.11656165 0.053730365 -0.04279549
-0.0208062 0.099895366 -0.09279025 0.051495593 -0.09594449 -0.057946347 0.13720271 -0.1723053
0.05820321 -0.10880209 0.10621314 0.10596206 -0.037579462 0.098454945 -0.0043318323 -0.12602335
0.10253089 0.08432719 0.0948338 0.12922752 0.061713062 -0.090930626 0.009194773 -0.01771032
-0.071922794 -0.023421897 -0.122538775 -0.014621073 0.10093496 0.102955 0.021869255 0.1182445
0.03211417 -0.059402045 0.033826597 -0.07489622 0.032069556 0.09135075 0.11013572 -0.07501662
00000000: a309 abbd 6e29 0abd 718d dbbc 1ad1 953d
00000010: 5e78 29bd 49f3 e7bd b999 ea3c 7dfd fc3d
00000020: 1c0f cd3d 90d1 8abd e4f0 8bbd e647 8dbb
00000030: a273 103d 5ca7 2b3b 8b46 a33d 6c4e 12be
00000040: 62fa 12be f825 ab3c 8afd d5bc 740d 523d
00000050: 9096 f9bc e670 88bb e024 bd3d 63b6 06be
00000060: a99c 61bd 70e0 2cbe a0ce 3abc 68a8 fbbd
00000070: aada dcbd 4c94 00be c118 ab3c 1b54 f63c
00000080: e20d cf3d e419 d93d 9a30 173d 866b ce3d
00000090: 3444 2dbe 3ab8 d0bd 3bd9 963d 8859 e33d
000000a0: 3f2b ce3d c905 823d 5681 22bd 7b9e 8c3c
000000b0: 0d74 2c3d a004 f6bc 17a0 8c3d 02b4 74bd
000000c0: 36a3 ba3c 6433 c8bc 5a0e 793d 33f0 0b3e
000000d0: f41c 1cbe d694 7bbd 7241 bd3d 9eac 173d
000000e0: 49b8 10be b3d2 1cbe 0797 3fbd 4c90 5c3d
000000f0: 8334 713d 5af7 26bb ea30 dfbc 64e1 85bd
00000100: f16b 44bb ee4a 18be c407 fa3d e6ed 143e
00000110: 4553 893d 76c0 2bbe f4a3 99bd 6fd0 ebbc
00000120: a32b fa3d 5996 b03d c0bf 7d3d 3218 983d
00000130: ed56 ec3d 71e9 60bd 2c24 2e3d 8586 8e3d
00000140: d492 c43d 86ed 85bd 53e6 65bd b6d0 17be
00000150: c284 b73c ebd2 febd 6605 99bd 03c7 0dbe
00000160: 8492 ceb9 de05 9a3d 798b 9dbd 01ba afbd
00000170: c463 3abd 1c15 2abe 5ac8 31be c361 10be
00000180: 6419 06bd 3843 0f3d f717 adbd 4028 a1bd
00000190: aa8e 083e 466e c7bd 1fc2 853d 2dcf 823d
000001a0: 86f8 19be ac8b 99bd 4581 b3bd 413b e83d
000001b0: 3940 e5bd 0b80 90bd 92cf bd3d 287c 9e3d
000001c0: 457a 223b bd9a d6bd eb9f 203c fcd7 dcbd
000001d0: 0668 fb3d fa6a 833d f36d 183e e0f6 0ebe
000001e0: 18e0 1dbe 9a03 9abd 3136 f43d 813d a93a
000001f0: fac3 023d 3a36 013e a504 b5bd 77c1 d43d
00000200: f178 d53d 36da fdbd e5fd 5abd e9fe ff3d
00000210: 1e6e ecbd 9498 66bd 27bd eb3c 185a 1a3e
00000220: 4684 e9bd c52d adbd e595 ee3c 16d0 3b3d
00000230: 52f9 7f3d 91c2 e0bd 84bd 9e3d 275e 163c
00000240: a554 de3c 8b82 9a39 f616 e23d dbf9 c5bc
00000250: 9318 98bd 5005 04bc d08b ac3b 0ed3 a63d
00000260: ae1b cfbd 7e5a d03d f490 253c 9b01 67bd
00000270: 5ab3 613d cb3d 093d 37e9 36bd ab57 583d
00000280: 54e2 a5bd 16c0 213d 527b 3a3d f1a3 113d
00000290: 11ff c9bd cb6f efbd c670 6ebd 6c0b 9a3d
000002a0: cb6c 083d ae1b 303d c632 eabd c53a 0ebe
000002b0: d0bb fc3d 340d 38bc 0566 b63d 679b 603d
000002c0: 9286 5dbd 4945 09be fc82 833d 7312 b43d
000002d0: c015 a4bd 09d6 7abd ed1a dfbd ba19 abbd
000002e0: fa37 e23d 1301 aabc 5fca edbc 7d30 7a3d
000002f0: ceb4 d3bd 02c6 9abd 3c96 e73d e598 cabd
00000300: 2108 cfbb 8f13 09bd 3131 92bc bb2f 10be
00000310: 84de 9b3d cde1 183d 313e 69bc 14f9 aebd
00000320: cd6d e23c 792c fc3c d8d2 2c3c f6d2 f13d
00000330: 0bc4 c4bd ae87 bd3d 1464 de3c e8c8 223c
00000340: 7913 a3bd b0c7 7bbd 044f 513d b2d5 ff3a
00000350: 9e84 cbbd e0b7 ee3d 5f14 5c3d 534a 2fbd
00000360: c471 aabc f195 cc3d d108 bebd 0bed 523d
00000370: 8b7e c4bd 2659 6dbd de7e 0c3e cd70 30be
00000380: 7d66 6e3d a1d3 debd 4686 d93d a302 d93d
00000390: ecec 19bd bfa2 c93d 0bf2 8dbb 440c 01be
000003a0: b7fb d13d bcb3 ac3d 3938 c23d 3854 043e
000003b0: d6c6 7c3d d639 babd aca5 163c 3c15 91bc
000003c0: 424c 93bd 47df bfbc 9cf5 fabd 3a8d 6fbc
000003d0: fdb6 ce3d 12da d23d 2727 b33c 2c2a f23d
000003e0: 268a 033d 8f4f 73bd c28d 0a3d 3063 99bd
000003f0: 5e5b 033d 1a16 bb3d d68e e13d 50a2 99bd

bns.0.weight f4 [128]
0.98636 0.974123 0.97048295 1.0028582 0.97261214 0.9648957 0.9821934 0.9782829
0.97137225 0.9774804 0.97837883 0.9806666 0.9829062 0.9687308 0.9702352 0.9694457
0.97945094 0.96122694 0.9739813 0.9794819 0.9836995 0.96091974 0.9796204 0.9821736
0.9820214 0.9694832 0.9670469 0.9867124 0.9754546 0.9774119 0.97615516 0.9828969
0.9670321 0.98464864 0.9744061 0.9779002 0.9830528 0.9742952 0.9858477 0.9810288
0.9790595 0.97060305 0.9998095 0.9772792 0.9684323 0.9757012 0.9730037 0.9763086
0.97125655 0.98102546 0.97020876 0.9758007 0.9732821 0.9866423 0.9764791 0.9711396
0.97963494 0.9602913 0.9725326 0.9742224 0.97039825 0.9758237 0.9862513 0.9709235
0.97904503 1.007379 0.9701704 0.96654844 0.9599995 0.98998785 0.9708855 0.96807176
0.9926242 0.9796394 0.97919 0.9652722 0.9777856 0.98415333 0.9846635 0.99528706
0.9788018 0.9936953 0.9725999 0.99158657 0.9916327 0.97288907 0.97077 1.0119951
0.97694546 0.9691964 1.0039756 0.99877435 0.98387736 0.9857129 0.97993636 0.9939143
1.0063206 0.9757693 0.98644006 0.9805863 0.97276527 0.9906274 0.9783856 0.9676341
0.98007953 0.9708855 0.98055977 0.9731612 0.9719954 0.98082906 0.97961056 0.98193085
0.97963715 0.9780156 0.96218187 0.97964233 0.9759078 0.97934884 0.9694116 0.96515894
0.99387074 0.995238 0.98383754 0.9847412 0.9806849 0.9722379 0.9785259 0.9812826
00000000: 1782 7c3f 2060 793f 9271 783f a85d 803f
00000010: 1cfd 783f 6803 773f 0771 7b3f c070 7a3f
00000020: daab 783f 283c 7a3f 0977 7a3f f70c 7b3f
00000030: be9f 7b3f befe 773f 5661 783f 982d 783f
00000040: 4cbd 7a3f f812 763f d756 793f 53bf 7a3f
00000050: bbd3 7b3f d6fe 753f 67c8 7a3f bb6f 7b3f
00000060: c165 7b3f 0d30 783f 6390 773f 2f99 7c3f
00000070: 65b7 793f ab37 7a3f 4ee5 793f 229f 7b3f
00000080: 6a8f 773f ef11 7c3f ae72 793f ab57 7a3f
00000090: 59a9 7b3f 696b 793f 8460 7c3f b424 7b3f
000000a0: a5a3 7a3f 7179 783f 84f3 7f3f f82e 7a3f
000000b0: 2eeb 773f 8ec7 793f c516 793f 5cef 793f
000000c0: 45a4 783f 7c24 7b3f 9a5f 783f 13ce 793f
000000d0: 0429 793f 9794 7c3f 89fa 793f 9b9c 783f
000000e0: 5bc9 7a3f a7d5 753f e5f7 783f a466 793f
000000f0: 056c 783f 95cf 793f f77a 7c3f 718e 783f
00000100: b2a2 7a3f ccf1 803f 165d 783f b86f 773f
00000110: 87c2 753f d86f 7d3f f48b 783f 8dd3 773f
00000120: 9f1c 7e3f a6c9 7a3f 32ac 7a3f 141c 773f
00000130: 2850 7a3f 79f1 7b3f e812 7c3f 22cb 7e3f
00000140: c192 7a3f d162 7e3f 4ffc 783f 9ed8 7d3f
00000150: a4db 7d3f 420f 793f 6284 783f 0e89 813f
00000160: 1919 7a3f 411d 783f 4682 803f adaf 7f3f
00000170: 63df 7b3f ae57 7c3f 1cdd 7a3f 2b71 7e3f
00000180: 1dcf 803f 04cc 793f 5687 7c3f b407 7b3f
00000190: 2507 793f c299 7d3f 7b77 7a3f deb6 773f
000001a0: 7ee6 7a3f f48b 783f f705 7b3f 1821 793f
000001b0: b1d4 783f 9d17 7b3f c2c7 7a3f d25f 7b3f
000001c0: 80c9 7a3f 3b5f 7a3f 8d51 763f d7c9 7a3f
000001d0: 18d5 793f 9bb6 7a3f 5c2b 783f a814 773f
000001e0: 506e 7e3f ebc7 7e3f c7dc 7b3f 0018 7c3f
000001f0: 2a0e 7b3f 95e4 783f ac80 7a3f 5635 7b3f

bns.0.bias f4 [128]
0.018575428 -0.0047990712 -0.01357382 0.022361418 -0.009864398 -0.03838086 -0.01467109 -0.037171286
-0.021951469 0.030399052 -0.019243771 0.012535858 0.0034084776 -0.032970037 -0.013044344 0.002221922
-0.022054609 -0.025023585 -0.030314118 -0.043671392 0.007653219 -0.03334505 -0.013822305 -0.019840699
0.0018905819 -0.023885407 -0.017581655 0.010226043 -0.007618391 0.004329284 0.038955554 0.046624985
0.009959088 -0.039020207 -0.021180829 -0.025124364 0.0006467006 -0.024705855 0.007508206 -0.034990776
-0.032124206 -0.016725611 0.016821401 -0.0039362516 0.025397366 -0.014601205 -0.037129637 -0.037847385
-0.021724276 0.036502693 -0.02077499 -0.018487688 -0.010826847 0.00672021 -0.03914674 -0.02583125
-0.03600196 -0.021197714 -0.050019152 -0.038218684 -0.013990451 -0.03385478 0.014196176 -0.0151560325
-0.0304582 0.02915245 -0.048140142 -0.019159326 -0.009107784 0.033283744 0.011539486 -0.013518518
0.017066045 -0.039947417 -0.017913269 -0.013230923 -0.029487599 -0.0017999179 0.005482747 0.013535163
-0.0033097106 0.0010470566 0.03986627 0.011530851 0.0054737246 0.05139916 -0.04454492 0.02826463
-0.02536484 -0.01886647 0.02653721 0.028259242 0.013964092 0.0045168363 -0.0134723615 0.013683696
0.028049879 -0.01311307 -0.00031633867 -0.024120735 -0.043370824 0.0064647025 0.0031897856 -0.020674853
-0.017002998 -0.0008451093 -0.042078663 -0.038593065 0.044682566 -0.0019276391 -0.022995565 0.013363584
-0.019620746 -0.019478684 -0.024702866 0.0067625847 -0.016617093 0.0048309336 0.019950962 -0.02509966
0.015488919 0.010884198 0.0007631156 0.027609983 -0.01955858 0.01456532 0.0006780507 -0.015251941
00000000: 7f2b 983c 8741 9dbb ba64 5ebc 4b2f b73c
00000010: 499e 21bc 4035 1dbd 035f 70bc eb40 18bd
00000020: 91d3 b3bc 6f07 f93c 1da5 9dbc 3363 4d3c
00000030: c460 5f3b 970b 07bd f2b7 55bc aa9d 113b
00000040: deab b4bc 43fe ccbc 5055 f8bc c6e0 32bd
00000050: dbc7 fa3b d294 08bd f376 62bc f688 a2bc
00000060: 67cd f73a 54ab c3bc 6707 90bc 228b 273c
00000070: b2a3 f9bb abdc 8d3b dc8f 1f3d d7f9 3e3d
00000080: 712b 233c a7d3 1fbd 6b83 adbc 9cd1 cdbc
00000090: 5887 293a ef63 cabc 6607 f63b 7d52 0fbd
000000a0: ac94 03bd 2604 89bc 09cd 893c acfb 80bb
000000b0: 230e d03c e439 6fbc 3f15 18bd dc05 1bbd
000000c0: 1cf7 b1bc d983 153d 5030 aabc 7e73 97bc
000000d0: 1663 31bc 3535 dc3b 5558 20bd 0f9c d3bc
000000e0: cb76 13bd d4a6 adbc e2e0 4cbd 328b 1cbd
000000f0: 3438 65bc 4fab 0abd 1497 683c 0251 78bc
00000100: 7a83 f9bc 1ed1 ee3c 992e 45bd 05f4 9cbc
00000110: d138 15bc 8954 083d 1d10 3d3c c67c 5dbc
00000120: 17ce 8b3c e79f 23bd d9be 92bc 83c6 58bc
00000130: fa8f f1bc 39eb ebba 9ea8 b33b 97c2 5d3c
00000140: bbe7 58bb 643d 893a d04a 233d e5eb 3c3c
00000150: ee5c b33b ed87 523d bc74 36bd 3a8b e73c
00000160: edc9 cfbc db8d 9abc 9064 d93c ed7f e73c
00000170: a6c9 643c f801 943b 2ebb 5cbc 9531 603c
00000180: dcc8 e53c 34d8 56bc 42da a5b9 d998 c5bc
00000190: 9ba5 31bd dbd5 d33b b90b 513b 4f5e a9bc
000001a0: df49 8bbc 538a 5dba ad5a 2cbd c313 1ebd
000001b0: 1105 373d d6a8 fcba 3261 bcbc eff2 5a3c
000001c0: b0bb a0bc c391 9fbc aa5d cabc ac98 dd3b
000001d0: 9220 88bc cf4c 9e3b 3370 a33c cd9d cdbc
000001e0: 3cc5 7d3c a353 323c d20b 483a 552e e23c
000001f0: 5139 a0bc 61a3 6e3c 36bf 313a 47e3 79bc

bns.0.running_mean f4 [128]
-0.2724873 0.10617888 -0.34568155 -0.09205239 0.19543454 0.2096777 -0.32618448 0.34238735
0.10647902 0.14049478 0.046306178 0.04002249 -0.084176935 0.11664746 0.06943688 0.0064727035
0.12425709 -0.21965078 0.1111052 0.2598225 -0.083203524 0.022187468 -0.24180743 -0.26398844
0.16761461 -0.06911781 -0.0015950407 0.15520829 0.119138055 -0.1517573 -0.052222818 -0.022209771
-0.0012196646 -0.07176447 0.09583854 -0.17366527 0.017292231 0.15999044 -0.30520692 0.059259932
0.28866208 0.09659666 -0.09273918 0.16112038 0.102475956 0.1858284 -0.28201914 -0.011383611
-0.036440212 -0.15701422 0.146638 0.25288352 -0.06670508 0.17221557 -0.20366712 -0.16866614
0.11534888 -0.25559354 0.34975433 0.15836067 -0.31868917 -0.0740106 -0.12474118 0.19634402
0.21015477 -0.08691358 0.27796248 -0.18406554 -0.24677244 -0.24859212 -0.16615632 -0.04137304
-0.040005356 -0.07620638 -0.084282905 0.063369654 0.29053748 0.07153429 0.1331623 -0.08110574
0.007680428 0.051876377 0.14024282 -0.27761957 -0.18237014 0.10258204 -0.13892627 -0.2154412
0.25561756 -0.32798025 -0.23539028 -0.26737013 -0.117697395 -0.25975335 -0.019118266 -0.13652745
0.033460278 -0.2851747 0.08868237 -0.0055030477 0.11583734 0.07949192 -0.24068558 0.16259497
0.17621887 0.14664577 0.046126347 -0.1632598 0.33939666 0.10396278 0.14023094 0.036723208
-0.22865385 -0.012194905 -0.33635652 -0.33773252 -0.073070206 -0.07504665 -0.16793624 0.19071333
-0.18189661 0.2687316 -0.16475946 -0.28836745 -0.030635362 0.16834404 0.060888685 -0.24409965
00000000: 7583 8bbe 5074 d93d 2cfd b0be f785 bcbd
00000010: fe1f 483e c0b5 563e a701 a7be 654d af3e
00000020: ac11 da3d dddd 0f3e 8cab 3d3d 9fee 233d
00000030: f564 acbd dde4 ee3d ec34 8e3d f918 d43b
00000040: 807a fe3d 22ec 60be 208b e33d 7407 853e
00000050: 9c66 aabd 7ec2 b53c 5e9c 77be 7e29 87be
00000060: 2aa3 2b3e a38d 8dbd af10 d1ba ecee 1e3e
00000070: a7fe f33d 4466 1bbe 98e7 55bd 44f1 b5bc
00000080: 27dd 9fba 40f9 92bd ff46 c43d 4fd5 31be
00000090: 70a8 8d3c 89d4 233e 1544 9cbe 8bba 723d
000000a0: 84cb 933e 78d4 c53d 0aee bdbd befc 243e
000000b0: eade d13d cd49 3e3e d064 90be 5382 3abc
000000c0: 5542 15bd 56c8 20be 4628 163e f379 813e
000000d0: ac9c 88bd 4759 303e 1d8e 50be d1b6 2cbe
000000e0: 093c ec3d 28dd 82be 0013 b33e 4d29 223e
000000f0: 3a2b a3be df92 97bd 4e78 ffbd 680e 493e
00000100: d032 573e bfff b1bd 1951 8e3e ad7b 3cbe
00000110: eab1 7cbe ef8e 7ebe e224 2abe c776 29bd
00000120: a8dc 23bd 1712 9cbd 849c acbd f3c7 813d
00000130: 54c1 943e 9280 923d b35b 083e c41a a6bd
00000140: 1aac fb3b 537c 543d d09b 0f3e 2724 8ebe
00000150: 3dbf 3abe 8816 d23d b042 0ebe 9e9c 5cbe
00000160: 4ee0 823e 07ed a7be 260a 71be bde4 88be
00000170: 550b f1bd 64fe 84be e99d 9cbc dacd 0bbe
00000180: a50d 093d 6b02 92be 1a9f b53d e952 b4bb
00000190: 213c ed3d a9cc a23d 4876 76be 4c7f 263e
000001a0: b872 343e 4f2a 163e fbee 3c3d 942d 27be
000001b0: 66c5 ad3e 70ea d43d b398 0f3e 136b 163d
000001c0: 3c24 6abe 24cd 47bc ec36 acbe 47eb acbe
000001d0: d5a5 95bd 0fb2 99bd 7af7 2bbe 5b4a 433e
000001e0: 1b43 3abe 3097 893e b4b6 28be e6a4 93be
000001f0: 03f7 fabc 6162 2c3e 6a66 793d 42f5 79be

bns.0.running_var f4 [128]
0.00020715815 0.0013273564 0.0003917621 0.00027655298 9.72424e-05 0.0001802542 0.00020854847 0.0007569794
0.00027421606 0.00023391022 0.0014492128 0.00014236677 0.0012124486 5.030492e-05 0.00018429341 0.0007097704
0.0002251159 0.0008557115 0.00149735 0.000994905 0.0013762622 6.394768e-05 0.0005167956 0.00048204817
0.00018609005 0.00042447797 0.00059216574 0.00018209193 0.00044814232 0.00016091438 0.00029438676 0.00040849092
0.00044007154 1.2999995e-05 0.0004942215 0.0005706428 5.332562e-05 0.00029085443 0.00014518807 3.153633e-05
0.0009325866 7.745392e-05 9.681065e-05 0.00040088905 0.0004119356 0.00019600555 0.0005101587 3.54173e-05
8.2257735e-05 0.0009385135 0.000101359525 0.00019806555 0.0002693815 0.0015499159 0.00012554017 9.5759446e-05
0.00028094262 0.00026513153 0.0013042333 0.00014381463 0.00022352686 0.00057355186 0.00035360386 0.00018427997
0.00085545244 0.000107404725 0.00039803414 0.0011719464 0.0017228522 0.00012714777 0.00023056408 0.00044921998
8.876594e-05 0.00011123702 0.0006276576 0.0020679748 0.0003773391 0.0001022035 9.040816e-05 0.00025456998
0.00013234859 0.0011289136 0.0006027209 0.0007973194 0.001255979 0.00020280319 0.00015509938 0.00011208228
0.00020792567 0.00095541956 0.00010419568 0.00014221338 9.801018e-05 0.00011178975 7.0225014e-06 0.00034457186
0.00022618064 0.0010566526 0.00090372167 0.0009433048 0.00088868476 0.0008112768 0.00011716599 0.0007464638
0.00094580295 3.1400046e-05 0.00025882013 0.0002242788 0.0007715068 0.00037429098 0.0009300216 0.00049729296
9.8257835e-05 6.5262284e-05 0.0015228057 0.00020247298 0.0008735045 0.00022992179 0.00016013581 7.565391e-05
0.0005070945 0.0006968301 0.00014175345 0.00025873474 0.00033278365 0.00029620365 0.00015460205 0.0003409106
00000000: 9838 5939 b1fa ad3a 6b65 cd39 50fe 9039
00000010: 9eee cb38 9e02 3d39 cead 5a39 0770 463a
00000020: a8c4 8f39 cc45 7539 83f3 bd3a 4a48 1539
00000030: 06eb 9e3a 7ffe 5238 e33e 4139 e30f 3a3a
00000040: 170d 6c39 d451 603a bb42 c43a 7967 823a
00000050: b263 b43a a61b 8638 9179 073a 69bb fc39
00000060: 2b21 4339 788c de39 923b 1b3a eeef 3e39
00000070: a5f4 ea39 20bb 2839 ec57 9a39 b92a d639
00000080: 67b9 e639 8e1a 5a37 a58e 013a 3197 153a
00000090: f3a9 5f38 d27d 9839 a03d 1839 e045 0438
000000a0: d478 743a c26e a238 d206 cb38 6b2e d239
000000b0: 0ff9 d739 d786 4d39 2cbc 053a 098d 1438
000000c0: c981 ac38 9306 763a fb90 d438 d1af 4f39
000000d0: c63b 8d39 8c26 cb3a 6fa3 0339 76d2 c838
000000e0: 7b4b 9339 5a01 8b39 cff2 aa3a f2cc 1639
000000f0: 8962 6a39 6a5a 163a e863 b939 473b 4139
00000100: 7140 603a 793e e138 3daf d039 ff9b 993a
00000110: 54d1 e13a f852 0539 93c3 7139 4985 eb39
00000120: da27 ba38 ec47 e938 6389 243a dc86 073b
00000130: 99d5 c539 1656 d638 8399 bd38 ce77 8539
00000140: 0ec7 0a39 0ef8 933a eaff 1d3a 3303 513a
00000150: a99f a43a 91a7 5439 2ca2 2239 b70d eb38
00000160: 9f06 5a39 1f75 7a3a a183 da38 1d1f 1539
00000170: d18a cd38 aa70 ea38 d4a2 eb36 a7a7 b439
00000180: e72a 6d39 617f 8a3a bce7 6c3a 1d48 773a
00000190: a0f6 683a ddab 543a 03b7 f538 56ae 433a
000001a0: c3ef 773a 8bb3 0338 40b2 8739 622c 6b39
000001b0: f23e 4a3a 7c3c c439 b1cc 733a c45c 023a
000001c0: c60f ce38 6cdd 8838 e198 c73a ed4e 5439
000001d0: e5fb 643a 2917 7139 21ea 2739 62a8 9e38
000001e0: 89ee 043a 7aab 363a a7a3 1439 caa6 8739
000001f0: 7779 ae39 c84b 9b39 ac1c 2239 3fbc b239

bns.1.weight f4 [128]
0.9198905 0.9198905 0.9198905 0.9198905 0.9198905 0.9198905 0.9198905 0.9198905
0.9198905 0.9198905 0.9198905 0.9198905 0.9198905 0.9198905 0.9198905 0.9198905
0.9198905 0.9198905 0.9198905 0.9198905 0.9198905 0.9198905 0.9198905 0.9198905
0.9198905 0.9198905 0.9198905 0.9198905 0.9198905 0.9198905 0.9198905 0.9198905
0.9198905 0.9198905 0.9198905 0.9198905 0.9198905 0.9198905 0.9198905 0.9198905
0.9198905 0.9198905 0.9198905 0.9198905 0.9198905 0.9198905 0.9198905 0.9198905
0.9198905 0.9198905 0.9198905 0.9198905 0.9198905 0.9198905 0.9198905 0.9198905
0.9198905 0.9198905 0.9198905 0.9198905 0.9198905 0.9198905 0.9198905 0.9198905
0.9198905 0.9198905 0.9198905 0.9198905 0.9198905 0.9198905 0.9198905 0.9198905
0.9198905 0.9198905 0.9198905 0.9198905 0.9198905 0.9198905 0.9198905 0.9198905
0.9198905 0.9198905 0.9198905 0.9198905 0.9198905 0.9198905 0.9198905 0.9198905
0.9198905 0.9198905 0.9198905 0.9198905 0.9198905 0.9198905 0.9198905 0.9198905
0.9198905 0.9198905 0.9198905 0.9198905 0.9198905 0.9198905 0.9198905 0.9198905
0.9198905 0.9198905 0.9198905 0.9198905 0.9198905 0.9198905 0.9198905 0.9198905
0.9198905 0.9198905 0.9198905 0.9198905 0.9198905 0.9198905 0.9198905 0.9198905
0.9198905 0.9198905 0.9198905 0.9198905 0.9198905 0.9198905 0.9198905 0.9198905
00000000: f27d 6b3f f27d 6b3f f27d 6b3f f27d 6b3f
00000010: f27d 6b3f f27d 6b3f f27d 6b3f f27d 6b3f
00000020: f27d 6b3f f27d 6b3f f27d 6b3f f27d 6b3f
00000030: f27d 6b3f f27d 6b3f f27d 6b3f f27d 6b3f
00000040: f27d 6b3f f27d 6b3f f27d 6b3f f27d 6b3f
00000050: f27d 6b3f f27d 6b3f f27d 6b3f f27d 6b3f
00000060: f27d 6b3f f27d 6b3f f27d 6b3f f27d 6b3f
00000070: f27d 6b3f f27d 6b3f f27d 6b3f f27d 6b3f
00000080: f27d 6b3f f27d 6b3f f27d 6b3f f27d 6b3f
00000090: f27d 6b3f f27d 6b3f f27d 6b3f f27d 6b3f
000000a0: f27d 6b3f f27d 6b3f f27d 6b3f f27d 6b3f
000000b0: f27d 6b3f f27d 6b3f f27d 6b3f f27d 6b3f
000000c0: f27d 6b3f f27d 6b3f f27d 6b3f f27d 6b3f
000000d0: f27d 6b3f f27d 6b3f f27d 6b3f f27d 6b3f
000000e0: f27d 6b3f f27d 6b3f f27d 6b3f f27d 6b3f
000000f0: f27d 6b3f f27d 6b3f f27d 6b3f f27d 6b3f
00000100: f27d 6b3f f27d 6b3f f27d 6b3f f27d 6b3f
00000110: f27d 6b3f f27d 6b3f f27d 6b3f f27d 6b3f
00000120: f27d 6b3f f27d 6b3f f27d 6b3f f27d 6b3f
00000130: f27d 6b3f f27d 6b3f f27d 6b3f f27d 6b3f
00000140: f27d 6b3f f27d 6b3f f27d 6b3f f27d 6b3f
00000150: f27d 6b3f f27d 6b3f f27d 6b3f f27d 6b3f
00000160: f27d 6b3f f27d 6b3f f27d 6b3f f27d 6b3f
00000170: f27d 6b3f f27d 6b3f f27d 6b3f f27d 6b3f
00000180: f27d 6b3f f27d 6b3f f27d 6b3f f27d 6b3f
00000190: f27d 6b3f f27d 6b3f f27d 6b3f f27d 6b3f
000001a0: f27d 6b3f f27d 6b3f f27d 6b3f f27d 6b3f
000001b0: f27d 6b3f f27d 6b3f f27d 6b3f f27d 6b3f
000001c0: f27d 6b3f f27d 6b3f f27d 6b3f f27d 6b3f
000001d0: f27d 6b3f f27d 6b3f f27d 6b3f f27d 6b3f
000001e0: f27d 6b3f f27d 6b3f f27d 6b3f f27d 6b3f
000001f0: f27d 6b3f f27d 6b3f f27d 6b3f f27d 6b3f

bns.1.bias f4 [128]
0.0 0.0 0.0 0.0 0.0 0.0 0.0 0.0
0.0 0.0 0.0 0.0 0.0 0.0 0.0 0.0
0.0 0.0 0.0 0.0 0.0 0.0 0.0 0.0
0.0 0.0 0.0 0.0 0.0 0.0 0.0 0.0
0.0 0.0 0.0 0.0 0.0 0.0 0.0 0.0
0.0 0.0 0.0 0.0 0.0 0.0 0.0 0.0
0.0 0.0 0.0 0.0 0.0 0.0 0.0 0.0
0.0 0.0 0.0 0.0 0.0 0.0 0.0 0.0
0.0 0.0 0.0 0.0 0.0 0.0 0.0 0.0
0.0 0.0 0.0 0.0 0.0 0.0 0.0 0.0
0.0 0.0 0.0 0.0 0.0 0.0 0.0 0.0
0.0 0.0 0.0 0.0 0.0 0.0 0.0 0.0
0.0 0.0 0.0 0.0 0.0 0.0 0.0 0.0
0.0 0.0 0.0 0.0 0.0 0.0 0.0 0.0
0.0 0.0 0.0 0.0 0.0 0.0 0.0 0.0
0.0 0.0 0.0 0.0 0.0 0.0 0.0 0.0
00000000: 0000 0000 0000 0000 0000 0000 0000 0000
00000010: 0000 0000 0000 0000 0000 0000 0000 0000
00000020: 0000 0000 0000 0000 0000 0000 0000 0000
00000030: 0000 0000 0000 0000 0000 0000 0000 0000
00000040: 0000 0000 0000 0000 0000 0000 0000 0000
00000050: 0000 0000 0000 0000 0000 0000 0000 0000
00000060: 0000 0000 0000 0000 0000 0000 0000 0000
00000070: 0000 0000 0000 0000 0000 0000 0000 0000
00000080: 0000 0000 0000 0000 0000 0000 0000 0000
00000090: 0000 0000 0000 0000 0000 0000 0000 0000
000000a0: 0000 0000 0000 0000 0000 0000 0000 0000
000000b0: 0000 0000 0000 0000 0000 0000 0000 0000
000000c0: 0000 0000 0000 0000 0000 0000 0000 0000
000000d0: 0000 0000 0000 0000 0000 0000 0000 0000
000000e0: 0000 0000 0000 0000 0000 0000 0000 0000
000000f0: 0000 0000 0000 0000 0000 0000 0000 0000
00000100: 0000 0000 0000 0000 0000 0000 0000 0000
00000110: 0000 0000 0000 0000 0000 0000 0000 0000
00000120: 0000 0000 0000 0000 0000 0000 0000 0000
00000130: 0000 0000 0000 0000 0000 0000 0000 0000
00000140: 0000 0000 0000 0000 0000 0000 0000 0000
00000150: 0000 0000 0000 0000 0000 0000 0000 0000
00000160: 0000 0000 0000 0000 0000 0000 0000 0000
00000170: 0000 0000 0000 0000 0000 0000 0000 0000
00000180: 0000 0000 0000 0000 0000 0000 0000 0000
00000190: 0000 0000 0000 0000 0000 0000 0000 0000
000001a0: 0000 0000 0000 0000 0000 0000 0000 0000
000001b0: 0000 0000 0000 0000 0000 0000 0000 0000
000001c0: 0000 0000 0000 0000 0000 0000 0000 0000
000001d0: 0000 0000 0000 0000 0000 0000 0000 0000
000001e0: 0000 0000 0000 0000 0000 0000 0000 0000
000001f0: 0000 0000 0000 0000 0000 0000 0000 0000

bns.1.running_mean f4 [128]
0.0 0.0 0.0 0.0 0.0 0.0 0.0 0.0
0.0 0.0 0.0 0.0 0.0 0.0 0.0 0.0
0.0 0.0 0.0 0.0 0.0 0.0 0.0 0.0
0.0 0.0 0.0 0.0 0.0 0.0 0.0 0.0
0.0 0.0 0.0 0.0 0.0 0.0 0.0 0.0
0.0 0.0 0.0 0.0 0.0 0.0 0.0 0.0
0.0 0.0 0.0 0.0 0.0 0.0 0.0 0.0
0.0 0.0 0.0 0.0 0.0 0.0 0.0 0.0
0.0 0.0 0.0 0.0 0.0 0.0 0.0 0.0
0.0 0.0 0.0 0.0 0.0 0.0 0.0 0.0
0.0 0.0 0.0 0.0 0.0 0.0 0.0 0.0
0.0 0.0 0.0 0.0 0.0 0.0 0.0 0.0
0.0 0.0 0.0 0.0 0.0 0.0 0.0 0.0
0.0 0.0 0.0 0.0 0.0 0.0 0.0 0.0
0.0 0.0 0.0 0.0 0.0 0.0 0.0 0.0
0.0 0.0 0.0 0.0 0.0 0.0 0.0 0.0
00000000: 0000 0000 0000 0000 0000 0000 0000 0000
00000010: 0000 0000 0000 0000 0000 0000 0000 0000
00000020: 0000 0000 0000 0000 0000 0000 0000 0000
00000030: 0000 0000 0000 0000 0000 0000 0000 0000
00000040: 0000 0000 0000 0000 0000 0000 0000 0000
00000050: 0000 0000 0000 0000 0000 0000 0000 0000
00000060: 0000 0000 0000 0000 0000 0000 0000 0000
00000070: 0000 0000 0000 0000 0000 0000 0000 0000
00000080: 0000 0000 0000 0000 0000 0000 0000 0000
00000090: 0000 0000 0000 0000 0000 0000 0000 0000
000000a0: 0000 0000 0000 0000 0000 0000 0000 0000
000000b0: 0000 0000 0000 0000 0000 0000 0000 0000
000000c0: 0000 0000 0000 0000 0000 0000 0000 0000
000000d0: 0000 0000 0000 0000 0000 0000 0000 0000
000000e0: 0000 0000 0000 0000 0000 0000 0000 0000
000000f0: 0000 0000 0000 0000 0000 0000 0000 0000
00000100: 0000 0000 0000 0000 0000 0000 0000 0000
00000110: 0000 0000 0000 0000 0000 0000 0000 0000
00000120: 0000 0000 0000 0000 0000 0000 0000 0000
00000130: 0000 0000 0000 0000 0000 0000 0000 0000
00000140: 0000 0000 0000 0000 0000 0000 0000 0000
00000150: 0000 0000 0000 0000 0000 0000 0000 0000
00000160: 0000 0000 0000 0000 0000 0000 0000 0000
00000170: 0000 0000 0000 0000 0000 0000 0000 0000
00000180: 0000 0000 0000 0000 0000 0000 0000 0000
00000190: 0000 0000 0000 0000 0000 0000 0000 0000
000001a0: 0000 0000 0000 0000 0000 0000 0000 0000
000001b0: 0000 0000 0000 0000 0000 0000 0000 0000
000001c0: 0000 0000 0000 0000 0000 0000 0000 0000
000001d0: 0000 0000 0000 0000 0000 0000 0000 0000
000001e0: 0000 0000 0000 0000 0000 0000 0000 0000
000001f0: 0000 0000 0000 0000 0000 0000 0000 0000

bns.1.running_var f4 [128]
1.0 1.0 1.0 1.0 1.0 1.0 1.0 1.0
1.0 1.0 1.0 1.0 1.0 1.0 1.0 1.0
1.0 1.0 1.0 1.0 1.0 1.0 1.0 1.0
1.0 1.0 1.0 1.0 1.0 1.0 1.0 1.0
1.0 1.0 1.0 1.0 1.0 1.0 1.0 1.0
1.0 1.0 1.0 1.0 1.0 1.0 1.0 1.0
1.0 1.0 1.0 1.0 1.0 1.0 1.0 1.0
1.0 1.0 1.0 1.0 1.0 1.0 1.0 1.0
1.0 1.0 1.0 1.0 1.0 1.0 1.0 1.0
1.0 1.0 1.0 1.0 1.0 1.0 1.0 1.0
1.0 1.0 1.0 1.0 1.0 1.0 1.0 1.0
1.0 1.0 1.0 1.0 1.0 1.0 1.0 1.0
1.0 1.0 1.0 1.0 1.0 1.0 1.0 1.0
1.0 1.0 1.0 1.0 1.0 1.0 1.0 1.0
1.0 1.0 1.0 1.0 1.0 1.0 1.0 1.0
1.0 1.0 1.0 1.0 1.0 1.0 1.0 1.0
00000000: 0000 803f 0000 803f 0000 803f 0000 803f
00000010: 0000 803f 0000 803f 0000 803f 0000 803f
00000020: 0000 803f 0000 803f 0000 803f 0000 803f
00000030: 0000 803f 0000 803f 0000 803f 0000 803f
00000040: 0000 803f 0000 803f 0000 803f 0000 803f
00000050: 0000 803f 0000 803f 0000 803f 0000 803f
00000060: 0000 803f 0000 803f 0000 803f 0000 803f
00000070: 0000 803f 0000 803f 0000 803f 0000 803f
00000080: 0000 803f 0000 803f 0000 803f 0000 803f
00000090: 0000 803f 0000 803f 0000 803f 0000 803f
000000a0: 0000 803f 0000 803f 0000 803f 0000 803f
000000b0: 0000 803f 0000 803f 0000 803f 0000 803f
000000c0: 0000 803f 0000 803f 0000 803f 0000 803f
000000d0: 0000 803f 0000 803f 0000 803f 0000 803f
000000e0: 0000 803f 0000 803f 0000 803f 0000 803f
000000f0: 0000 803f 0000 803f 0000 803f 0000 803f
00000100: 0000 803f 0000 803f 0000 803f 0000 803f
00000110: 0000 803f 0000 803f 0000 803f 0000 803f
00000120: 0000 803f 0000 803f 0000 803f 0000 803f
00000130: 0000 803f 0000 803f 0000 803f 0000 803f
00000140: 0000 803f 0000 803f 0000 803f 0000 803f
00000150: 0000 803f 0000 803f 0000 803f 0000 803f
00000160: 0000 803f 0000 803f 0000 803f 0000 803f
00000170: 0000 803f 0000 803f 0000 803f 0000 803f
00000180: 0000 803f 0000 803f 0000 803f 0000 803f
00000190: 0000 803f 0000 803f 0000 803f 0000 803f
000001a0: 0000 803f 0000 803f 0000 803f 0000 803f
000001b0: 0000 803f 0000 803f 0000 803f 0000 803f
000001c0: 0000 803f 0000 803f 0000 803f 0000 803f
000001d0: 0000 803f 0000 803f 0000 803f 0000 803f
000001e0: 0000 803f 0000 803f 0000 803f 0000 803f
000001f0: 0000 803f 0000 803f 0000 803f 0000 803f

classifier.weight f4 [6, 128]
-0.083073795 -0.066886745 -0.034906287 0.01996577 -0.091413885 -0.07996021 -0.057105616 -0.027745454
0.028684285 -0.07394517 -0.013697584 0.07586826 -0.037662175 -0.018476928 -0.025871294 0.053056356
-0.03833823 0.031981234 0.0072032036 -0.049019776 0.040700886 0.054965682 -0.07062215 0.025329277
-0.030446535 0.00066871126 0.0828068 -0.0548733 0.038176376 -0.0723083 0.010512209 0.008111866
0.07599471 0.0054992144 -0.027462956 0.035560098 -0.031590775 0.021867028 -0.049189992 -0.04048185
0.052659605 0.00749643 0.00067987334 -0.045416497 -0.019104322 -0.003379108 0.0150933955 0.028128436
-0.019463638 0.06478573 -0.025680596 -0.02911529 0.016991373 0.05241235 0.04907783 -0.06526965
-0.0031485164 -0.015604989 -0.06872912 0.008141999 0.04125949 -0.019489322 -0.07147004 0.068680845
-0.020260723 0.045708444 -0.022673601 0.07687515 0.04935081 -0.01871572 0.006100582 0.02800656
0.057029508 -0.058158323 -0.06700638 0.0064860433 0.021947883 -0.0628565 0.022879206 0.004814574
-0.023100004 -0.014781897 0.047196217 0.06559194 -0.008303467 0.036577422 -0.06354887 -0.04686788
0.047640905 0.06568341 -0.052271612 0.022553701 -0.058476623 -0.016645573 -0.06806031 -0.065008715
-0.077300526 -0.031231029 -0.06371778 -0.04973344 0.025977405 0.042108785 -0.021541096 -0.016737483
-0.048405424 -0.043704618 -0.041631922 0.0056172595 0.050614208 -0.00891988 -0.0013449123 0.021196393
0.065577924 -0.02863757 0.06382006 -0.032302257 0.04335993 0.019463427 0.0645588 0.028237317
-0.03649171 -0.06175282 0.019866524 -0.031657264 0.012525108 -0.014874698 0.0015064027 -0.02047684
-0.092998035 0.05621699 0.016025385 0.05731635 -0.040727537 0.032783452 0.0019825075 -0.063724376
0.023173414 -0.07661193 0.033192918 0.022539964 9.815847e-05 -0.02669412 -0.022925338 0.03187832
0.029368483 -0.024028206 -0.060559973 0.075698175 -0.014354089 0.02041434 -0.01067444 -0.011683529
-0.03967565 0.07253671 -0.017065428 0.020682938 -0.04496826 -0.03390713 0.049599808 -0.05590366
0.044885825 -0.009871143 0.013534254 0.04754395 -0.02369849 -0.015430613 -0.05179187 0.04870293
0.060299817 0.019669157 -0.052744478 -0.007416096 0.028039122 -0.041097485 0.030688573 -0.027482884
0.0020679035 -0.015000151 -0.04526231 -0.047585983 -0.012713006 0.03635587 0.048307806 0.0032648882
-0.0010259754 -0.010045005 0.015356993 0.06393289 -0.069942236 -0.019902801 0.031705562 -0.05411383
-0.057693694 0.0049191536 -0.0054763346 0.0470629 -0.07310959 -0.002631422 0.06088284 -0.04888109
0.039027534 0.059882253 -0.039547324 -0.08402875 0.015834546 -0.030975543 0.008230848 0.059631933
0.050130177 0.009482603 -0.020109894 -0.009625115 -0.06283765 -0.020691104 -0.035980534 -0.0041111684
0.029082226 0.05222721 -0.036834285 -0.012018036 0.042974737 0.039860807 -0.015585368 0.043415725
-0.002946184 -0.0051394333 -0.035675313 -0.021148406 0.03256767 0.020813292 -0.011270733 -0.060477246
-0.06287286 0.032949213 -0.06963495 0.007503563 0.030506616 -0.02274381 -0.07965801 -0.00039514876
0.031060945 0.016142502 -0.036017243 0.015840223 -0.05118451 -0.028720444 -0.081708945 -0.015031963
0.06191321 0.034084503 -0.046150353 0.01827979 0.070945054 0.010834294 -0.022224635 -0.046840142
00000000: 9822 aabd ebfb 88bd e5f9 0ebd 418f a33c
00000010: 3437 bbbd 2ec2 a3bd 94e7 69bd 6f4a e3bc
00000020: 4efb ea3c 9170 97bd d56b 60bc d160 9b3d
00000030: a743 1abd ed5c 97bc 09f0 d3bc 9f51 593d
00000040: 8c08 1dbd c1fe 023d da08 ec3b f6c8 48bd
00000050: f9b5 263d b223 613d 59a2 90bd 587f cf3c
00000060: 036b f9bc 744c 2f3a 9d96 a93d d3c2 60bd
00000070: d55e 1c3d 6016 94bd 663b 2c3c a2e7 043c
00000080: 1da3 9b3d c132 b43b fef9 e0bc 77a7 113d
00000090: 5465 01bd 7b22 b33c 727b 49bd 4cd0 25bd
000000a0: 99b1 573d 9da4 f53b 8739 323a a606 3abd
000000b0: ab80 9cbc 0674 5dbb 4a4a 773c 9b6d e63c
000000c0: 3572 9fbc 61ae 843d 1d60 d2bc 3083 eebc
000000d0: 7e31 8b3c 55ae 563d d605 493d 18ac 85bd
000000e0: 5757 4ebb 11ac 7fbc dac1 8cbd 0566 053c
000000f0: b6ff 283d 12a8 9fbc e25e 92bd 8ba8 8c3d
00000100: d1f9 a5bc c738 3b3d fdbd b9bc b870 9d3d
00000110: 1324 4a3d b651 99bc 64e7 c73b 036e e53c
00000120: c697 693d 6c37 6ebd a43a 89bd e088 d43b
00000130: 0ccc b33c e9ba 80bd 2c6d bb3c 93c3 9d3b
00000140: 383c bdbc c52f 72bc d250 413d 1155 863d
00000150: 440b 08bc 35d2 153d e925 82bd 89f8 3fbd
00000160: 1c23 433d 0685 863d c21a 56bd 8ac2 b83c
00000170: 2f85 6fbd 4c5c 88bc 3463 8bbd 4a23 85bd
00000180: bd4f 9ebd 37d8 ffbc 787e 82bd 4bb5 4bbd
00000190: 91ce d43c 437a 2c3d f476 b0bc 0c1d 89bc
000001a0: c444 46bd 9d03 33bd 3c86 2abd fd10 b83b
000001b0: d850 4f3d b024 12bc c547 b0ba 0fa4 ad3c
000001c0: b84d 863d 5699 eabc 17b4 823d 5f4f 04bd
000001d0: 2f9a 313d c471 9f3c 6737 843d f251 e73c
000001e0: 5578 15bd 86f0 7cbd 1fbf a23c 0cab 01bd
000001f0: 1c36 4d3c 01b5 73bc 7d72 c53a 0cbf a7bc
00000200: c175 bebd c943 663d ab47 833c 8dc4 6a3d
00000210: ebd1 26bd f147 063d f5ec 013b ed81 82bd
00000220: 2cd6 bd3c b7e6 9cbd 4cf5 073d bba5 b83c
00000230: 6dda cd38 a1ad dabc ebcd bbbc d792 023d
00000240: 2c96 f03c cdd6 c4bc bc0d 78bd a507 9b3d
00000250: 6a2d 6bbc f93b a73c d9e3 2ebc 466c 3fbc
00000260: ef82 22bd 208e 943d cccc 8bbc 446f a93c
00000270: a330 38bd 34e2 0abd 2b29 4b3d 3cfb 64bd
00000280: 33da 373d 93ba 21bc c7be 5d3c 72bd 423d
00000290: 5623 c2bc afd0 7cbc b623 54bd b97c 473d
000002a0: f1fc 763d 3621 a13c 980a 58bd b902 f3bb
000002b0: 4db2 e53c d655 28bd 9a66 fb3c c923 e1bc
000002c0: aa85 073b 31c3 75bc f964 39bd 85e9 42bd
000002d0: 364a 50bc e5e9 143d 68de 453d bcf7 553b
000002e0: 067a 86ba ce93 24bc e69b 7b3c 3fef 823d
000002f0: e03d 8fbd 330b a3bc b1dd 013d 77a6 5dbd
00000300: 3950 6cbd da30 a13b d372 b3bb 07c5 403d
00000310: 7bba 95bd ef73 2cbb 4960 793d 8a37 48bd
00000320: 56db 1f3d 1847 753d 60fc 21bd 4417 acbd
00000330: 73b7 813c 6cc0 fdbc aeda 063c 9d40 743d
00000340: 4d55 4d3d eb5c 1b3c 81bd a4bc a9b2 1dbc
00000350: 07b1 80bd 6480 a9bc 5360 13bd fbb6 86bb
00000360: d93d ee3c 33ec 553d 8cdf 16bd 4ce7 44bc
00000370: 4706 303d 1645 233d c559 7fbc b0d4 313d
00000380: c414 41bb b168 a8bb 4720 12bd 6c3f adbc
00000390: ad65 053d a380 aa3c e1a8 38bc fdb6 77bd
000003a0: 7cc3 80bd c1f5 063d c59c 8ebd 73e0 f53b
000003b0: 03e9 f93c 3a51 babc bd23 a3bd f82b cfb9
000003c0: 8673 fe3c 483d 843c d186 13bd 5bc3 813c
000003d0: d9a6 51bd 2347 ebbc 0557 a7bd 9f48 76bc
000003e0: b598 7d3d 319c 0b3d 2708 3dbd 80bf 953c
000003f0: a44b 913d 5382 313c 7010 b6bc 73db 3fbd

classifier.bias f4 [6]
-0.04113188 0.014627225 0.0007801633 0.020678934 0.0068481355 0.11985224
00000000: e779 28bd 07a7 6f3c df83 4c3a de66 a93c
00000010: 5366 e03b 1775 f53d
