OnlineJudge/ai/dl_models/gnn/knowledge_graph_model.pth (torch, 7589 bytes, 8 tensors)

convs.0.bias f4 [64]
000000 9f f6 57 3d fc 6f 50 3d 39 e9 0a 3d 96 e1 4f bd
       0.05272543 0.050888047 0.033913825 -0.050752245
000010 53 73 2d 3d 0f 25 34 3d 26 b3 b6 3d 8f e3 92 bd
       0.04234631 0.043980654 0.089208886 -0.071723096
000020 19 58 8d bc 08 94 a4 bd 02 ac c3 b9 ed 6d a1 bd
       -0.017253922 -0.08036047 -0.00037321454 -0.07882295
000030 c6 69 48 3d 36 fc fc 3a 8c 79 cf bb 85 c2 ab bd
       0.048929 0.0019301239 -0.006331628 -0.08386711
000040 10 8c d3 bc c3 8f dc 3c 97 d4 18 3d ba d6 2c 3d
       -0.025823623 0.02692402 0.037312116 0.042196967
000050 45 64 1a 3c 6f 3d 52 3d 6c a1 25 bd f6 c9 a7 3a
       0.00942332 0.05132812 -0.040437147 0.0012801278
000060 31 c2 2e ba 18 6d c1 3c db d9 a5 3d bf 30 3e 3d
       -0.000666651 0.02361159 0.08098193 0.046433207
000070 e5 af 3c bd 24 ef fd ba 35 b6 b2 bb 6b 03 ec bc
       -0.046066184 -0.0019373638 -0.0054538497 -0.028810224
000080 78 72 a5 bd e1 62 28 bd 1b 8e a3 3c 02 97 0f bd
       -0.08078474 -0.041109923 0.019965222 -0.03505612
000090 1b 54 4e 3d 1b 6e 85 bd 04 53 f1 3c b1 bb c9 bc
       0.050373178 -0.065151416 0.02945853 -0.024625631
0000a0 5a 97 1d 3d ea cc 46 3d c3 f7 a7 3d f2 f1 88 3c
       0.03847442 0.048535265 0.08201554 0.016716931
0000b0 76 0d 37 bd 4e fe 8d bb 12 c1 53 3d fb bf 14 bd
       -0.04469057 -0.004333294 0.051697798 -0.0363159
0000c0 ee 98 e0 bb bf c6 9b 3d b8 58 71 3d 75 2c 38 bd
       -0.006854168 0.07606267 0.0589225 -0.044964273
0000d0 1c 36 9d bd 87 60 48 3d 0e 55 a5 bd fe e6 6c 3d
       -0.07676336 0.04892018 -0.080728635 0.05783748
0000e0 c4 c0 7b bd c4 f2 e3 bc 1b 65 ac 3c 79 4d 7d 3c
       -0.061463133 -0.02782572 0.021044305 0.015460365
0000f0 e5 0a 21 bc 8d 72 6b 3c 30 b2 a1 bd 6f ca 13 3d
       -0.009829258 0.014370573 -0.07895315 0.036081728

convs.0.lin.weight f4 [64, 6]
000000 f3 86 89 bd 3f e2 03 be 90 b2 92 b8 65 97 29 3d
       -0.06715193 -0.12879275 -6.9950824e-05 0.041404147
000010 0a 6a 13 be 0b fa 2f 3e cb 26 6f 3d 1e c5 a1 3e
       -0.1439592 0.17185228 0.058386605 0.315957
000020 bc 70 35 39 fa f4 0b bd 3b 8e b5 bd e8 dc fd bd
       0.00017303502 -0.034169175 -0.08865019 -0.1239565
000030 af 42 87 3e 99 34 99 bd 94 72 23 3a d5 5f 6b bd
       0.26418063 -0.07480735 0.000623503 -0.05746444
000040 37 a6 e5 3d 07 9e 76 3e e2 93 21 3e 1e 6f f4 3d
       0.112133436 0.2408372 0.15779069 0.119352564
000050 80 71 b1 b6 6f 3b 3e bc 5f 9e 44 3c ac 51 57 be
       -5.288224e-06 -0.01161085 0.012000649 -0.21027249
000060 56 2e a6 3c 8e 6d fa bc aa 11 93 ba f8 f9 05 3d
       0.020285767 -0.030569818 -0.0011220474 0.032709092
000070 49 8e 32 be d6 3a 85 bb e7 8b 82 3e 17 5e 3c be
       -0.1743709 -0.0040658517 0.25497362 -0.18395267
000080 18 b8 88 b8 4d 99 56 bd c7 49 2b bb 9b dc 44 3e
       -6.5192755e-05 -0.052392293 -0.0026136504 0.1922478
000090 ee 89 d8 3d fa e2 38 be 67 e8 3b 38 34 c2 1c bc
       0.10573183 -0.18055335 4.4800716e-05 -0.009567786
0000a0 2d 90 f6 3c b4 ee 33 be c3 94 6e be 7b ad 80 3d
       0.030098045 -0.17571527 -0.23298936 0.06283089
0000b0 78 69 0c b9 76 3a 2f bd db 92 f0 3d 15 ad 26 3e
       -0.0001339073 -0.042780362 0.117467605 0.16276963
0000c0 fb 68 20 3d 71 bb 39 be e9 8e 90 ba 2b 3e 81 3d
       0.039162617 -0.1813791 -0.0011028919 0.06310686
0000d0 df 93 00 be d0 35 3e 3d 61 65 cb 37 17 b3 71 3d
       -0.12556408 0.04643804 2.4246694e-05 0.059008684
0000e0 b9 1f 03 ba b9 55 fa bc cb 5c 0f be 34 82 28 3e
       -0.00050019805 -0.030558454 -0.14000241 0.16455919
0000f0 18 8f 08 be f6 a7 06 bd 4e 30 ba 38 6a 60 dd bc
       -0.13335836 -0.032875024 8.8781686e-05 -0.027023513
000100 f6 7e 74 3e 1d f5 97 3d cf 1c 40 bd b0 fc 07 3e
       0.23876557 0.074197985 -0.046902474 0.13279986
000110 d3 a5 7b 3a bf 1c 29 bd 3a d4 4a 3e b2 65 32 3b
       0.00095996 -0.04128718 0.1980752 0.002722126
000120 b2 18 04 be 1e ad 83 3e 62 8e dd b7 6f c6 82 bd
       -0.12900046 0.25718015 -2.6411555e-05 -0.063855045
000130 93 71 1e 3e ed c1 a1 bd 71 9c a9 3c 7e e3 3f 3e
       0.15473013 -0.078983165 0.02070448 0.18739125
000140 b5 56 29 39 ba 85 d1 bc f4 56 01 3e 96 e9 2c be
       0.00016149397 -0.025576461 0.12630826 -0.16885981
000150 22 f2 2c 3d d2 4f 53 bd d8 3c ba 38 90 5f c1 bb
       0.042223103 -0.051589794 8.880504e-05 -0.0059012845
000160 a6 aa dc 3d 0c 6e 36 be 81 4d 10 3e d9 51 c4 bd
       0.10774736 -0.17815417 0.14092065 -0.09585924
000170 c6 aa b5 37 67 0b 2a 3d 86 ea 73 be 59 e0 36 3e
       2.1656404e-05 0.04151478 -0.23819932 0.1785902
000180 41 55 61 3e 84 11 c1 3c 58 19 02 3a ca 3d 66 3c
       0.22005178 0.023567922 0.0004962883 0.014052818
000190 f4 03 43 3d b2 03 6b be 23 90 b2 bd 75 32 e7 3c
       0.047611192 -0.22950628 -0.08718898 0.028222302
0001a0 b9 2f ae 3a 41 4f 80 bd e3 58 9b 3e 29 d7 dd 3d
       0.0013289369 -0.062651165 0.30341253 0.10832054
0001b0 33 4b f1 3d db c5 40 be 58 67 f3 b8 64 c9 78 bd
       0.11781921 -0.18825476 -0.00011606392 -0.060738936
0001c0 65 a4 90 bd 81 66 87 3e 5f e1 07 be b3 c9 ec bd
       -0.07062606 0.26445392 -0.13269566 -0.115619086
0001d0 b8 d5 9d ba a2 32 cf ba bb 2c 86 bc 0b d0 3b 3e
       -0.0012041843 -0.0015807936 -0.016378751 0.18341081
0001e0 0b 00 7e 3e b6 36 3e 3e 95 1c 8e b9 b0 9e b5 bc
       0.24804704 0.18575558 -0.00027105646 -0.022170395
0001f0 97 0d 6f bd c4 cf 09 3d 07 16 9a 3e 81 5b 91 3e
       -0.05836257 0.033645406 0.3009493 0.28390124
000200 a2 f3 2e ba 0a 57 8e bd 73 b6 8b 3c 58 08 5c 3e
       -0.00066738774 -0.06950195 0.017054772 0.21487558
000210 fe ad 64 3d 53 5d 3c 3e 54 ba 6a 3a bb 65 91 bc
       0.055829994 0.18394975 0.00089541567 -0.017748704
000220 f4 5d 36 3d 5b d0 d6 bd 8a e0 ee 3d 81 4a 3a be
       0.044523194 -0.104889594 0.11663921 -0.18192483
000230 ee a3 6d ba b6 16 b3 bc 5e 7e 6c bd 5a 3e 48 3e
       -0.000906526 -0.021861415 -0.0577377 0.19555035
000240 a2 a0 07 be aa 91 55 3e a1 aa f8 b7 4d 6c ec bc
       -0.1324487 0.20856348 -2.9643359e-05 -0.028860236
000250 fa ca 92 bd 47 c7 a8 3d a1 8c df bd 55 59 28 3e
       -0.07167621 0.08241134 -0.10915495 0.16440327
000260 7e e2 a3 b9 cd 52 ac bc fa e8 9b bd 9e bd ce 3d
       -0.00031258533 -0.021035576 -0.07612796 0.1009476
000270 e7 ba c0 3d 0b b3 04 be ac bb 50 ba b2 76 1c 3d
       0.09410649 -0.12958924 -0.00079625356 0.038199134
000280 f8 c4 ae bc fa 2b 6f bd c0 65 77 3e 0f 89 2c bc
       -0.021334156 -0.05839155 0.24159908 -0.010530724
000290 92 a6 b2 b9 b6 52 36 bd e2 3a 71 be 4f 26 67 3e
       -0.0003407491 -0.044512473 -0.23557618 0.22573207
0002a0 88 5e 8d be 41 a1 2f 3e 32 1a d8 b8 48 71 71 bc
       -0.27611184 0.17151357 -0.00010304562 -0.014736481
0002b0 86 34 0c be bc f8 3e 3d f1 c6 03 bd 20 bd 95 bd
       -0.13691911 0.04662393 -0.032172147 -0.07311463
0002c0 de 56 d7 b9 2a 0f 1d bd 8e 70 0d 3e 54 0b 6a 3d
       -0.00041072717 -0.03834454 0.13812467 0.05713971
0002d0 d9 0f c1 bd 4b 6c f3 3c 3d 4f 8f b9 49 ed ec bb
       -0.09426851 0.029714724 -0.00027334123 -0.007230435
0002e0 f1 82 80 3d ca 9c aa bd 68 e7 8d 3d ab a9 bc 3d
       0.06274975 -0.083306864 0.06928903 0.09212049
0002f0 68 6a d5 3a 33 1d 58 3d 1f 1f 8d bd 5e 9a 91 be
       0.0016282322 0.05276222 -0.068907015 -0.28438085
000300 d7 13 d7 3d e3 56 da 3d 00 63 b8 b6 6d fc ff ba
       0.10501831 0.106611036 -5.4951524e-06 -0.0019530185
000310 70 c8 83 bd f0 f3 66 bd 23 3c 01 be b4 12 45 be
       -0.06434715 -0.05638498 -0.12620597 -0.19245416
000320 86 90 0a 3a 9d 53 22 3d 39 c7 0b be 9c 14 19 3e
       0.0005285818 0.03963052 -0.13650216 0.14949268
000330 b3 61 63 3d a0 97 7a 3b 40 6f e5 b8 06 a4 70 bc
       0.055513095 0.0038237348 -0.00010940293 -0.014687544
000340 4c f4 45 be 8e 2b b8 3d 1a a7 90 bd 46 09 8c be
       -0.19331473 0.089926824 -0.07063122 -0.27350825
000350 47 f2 35 3a b1 42 4d 3c e3 49 4c 3e af 60 11 bd
       0.0006940704 0.0125281075 0.1995006 -0.035492595
000360 5d e2 9d bd b4 9c e4 3c 80 0e 4e b8 a9 47 81 bd
       -0.07709191 0.027906753 -4.912773e-05 -0.06312496
000370 a9 72 84 bd 79 f9 85 3e e2 c7 20 bc de 16 cb b9
       -0.06467182 0.26166895 -0.009813281 -0.00038736215
000380 5e 5e 9c 3a 90 4f 1b bd 75 1d 68 3e 79 50 b1 3c
       0.0011929979 -0.037917674 0.22667487 0.021644818
000390 14 c1 b0 3d 8a 66 31 be e8 c4 5c 3a a8 8e 86 3c
       0.08630577 -0.17324272 0.00084216753 0.016425446
0003a0 3b 5c 9e 3d 72 3a af 3d 18 08 3a be 24 2c 88 be
       0.07732435 0.085560694 -0.1816715 -0.26596177
0003b0 a2 b7 20 ba ae 85 ff 3c b2 a5 0d 3e d8 b8 13 3e
       -0.0006130879 0.031191673 0.13832739 0.14425981
0003c0 63 93 b1 3d c6 2f 29 3b aa 37 44 3a a5 45 31 bb
       0.0867069 0.0025815829 0.0007485101 -0.0027049568
0003d0 ff ac 61 bd 3e f4 c8 3d ff 5d 63 3e 96 17 9f 3e
       -0.055096623 0.098122105 0.22203825 0.31072682
0003e0 d2 28 35 3a 24 d4 4f bd 7e 02 4a 3e 1f 4f 91 3e
       0.0006910685 -0.050739422 0.19727513 0.28380677
0003f0 8b 08 1a bd e4 dc 1a bd 40 0d d7 b9 9c 92 8c bc
       -0.037605803 -0.037808314 -0.00041017868 -0.017159753

bns.0.weight f4 [64]
000000 00 00 80 3f 00 00 80 3f 00 00 80 3f 00 00 80 3f
       1.0 1.0 1.0 1.0
000010 00 00 80 3f 00 00 80 3f 00 00 80 3f 00 00 80 3f
       1.0 1.0 1.0 1.0
000020 00 00 80 3f 00 00 80 3f 00 00 80 3f 00 00 80 3f
       1.0 1.0 1.0 1.0
000030 00 00 80 3f 00 00 80 3f 00 00 80 3f 00 00 80 3f
       1.0 1.0 1.0 1.0
000040 00 00 80 3f 00 00 80 3f 00 00 80 3f 00 00 80 3f
       1.0 1.0 1.0 1.0
000050 00 00 80 3f 00 00 80 3f 00 00 80 3f 00 00 80 3f
       1.0 1.0 1.0 1.0
000060 00 00 80 3f 00 00 80 3f 00 00 80 3f 00 00 80 3f
       1.0 1.0 1.0 1.0
000070 00 00 80 3f 00 00 80 3f 00 00 80 3f 00 00 80 3f
       1.0 1.0 1.0 1.0
000080 00 00 80 3f 00 00 80 3f 00 00 80 3f 00 00 80 3f
       1.0 1.0 1.0 1.0
000090 00 00 80 3f 00 00 80 3f 00 00 80 3f 00 00 80 3f
       1.0 1.0 1.0 1.0
0000a0 00 00 80 3f 00 00 80 3f 00 00 80 3f 00 00 80 3f
       1.0 1.0 1.0 1.0
0000b0 00 00 80 3f 00 00 80 3f 00 00 80 3f 00 00 80 3f
       1.0 1.0 1.0 1.0
0000c0 00 00 80 3f 00 00 80 3f 00 00 80 3f 00 00 80 3f
       1.0 1.0 1.0 1.0
0000d0 00 00 80 3f 00 00 80 3f 00 00 80 3f 00 00 80 3f
       1.0 1.0 1.0 1.0
0000e0 00 00 80 3f 00 00 80 3f 00 00 80 3f 00 00 80 3f
       1.0 1.0 1.0 1.0
0000f0 00 00 80 3f 00 00 80 3f 00 00 80 3f 00 00 80 3f
       1.0 1.0 1.0 1.0

bns.0.bias f4 [64]
000000 00 00 00 00 00 00 00 00 00 00 00 00 00 00 00 00
       0.0 0.0 0.0 0.0
000010 00 00 00 00 00 00 00 00 00 00 00 00 00 00 00 00
       0.0 0.0 0.0 0.0
000020 00 00 00 00 00 00 00 00 00 00 00 00 00 00 00 00
       0.0 0.0 0.0 0.0
000030 00 00 00 00 00 00 00 00 00 00 00 00 00 00 00 00
       0.0 0.0 0.0 0.0
000040 00 00 00 00 00 00 00 00 00 00 00 00 00 00 00 00
       0.0 0.0 0.0 0.0
000050 00 00 00 00 00 00 00 00 00 00 00 00 00 00 00 00
       0.0 0.0 0.0 0.0
000060 00 00 00 00 00 00 00 00 00 00 00 00 00 00 00 00
       0.0 0.0 0.0 0.0
000070 00 00 00 00 00 00 00 00 00 00 00 00 00 00 00 00
       0.0 0.0 0.0 0.0
000080 00 00 00 00 00 00 00 00 00 00 00 00 00 00 00 00
       0.0 0.0 0.0 0.0
000090 00 00 00 00 00 00 00 00 00 00 00 00 00 00 00 00
       0.0 0.0 0.0 0.0
0000a0 00 00 00 00 00 00 00 00 00 00 00 00 00 00 00 00
       0.0 0.0 0.0 0.0
0000b0 00 00 00 00 00 00 00 00 00 00 00 00 00 00 00 00
       0.0 0.0 0.0 0.0
0000c0 00 00 00 00 00 00 00 00 00 00 00 00 00 00 00 00
       0.0 0.0 0.0 0.0
0000d0 00 00 00 00 00 00 00 00 00 00 00 00 00 00 00 00
       0.0 0.0 0.0 0.0
0000e0 00 00 00 00 00 00 00 00 00 00 00 00 00 00 00 00
       0.0 0.0 0.0 0.0
0000f0 00 00 00 00 00 00 00 00 00 00 00 00 00 00 00 00
       0.0 0.0 0.0 0.0

bns.0.running_mean f4 [64]
000000 00 00 00 00 00 00 00 00 00 00 00 00 00 00 00 00
       0.0 0.0 0.0 0.0
000010 00 00 00 00 00 00 00 00 00 00 00 00 00 00 00 00
       0.0 0.0 0.0 0.0
000020 00 00 00 00 00 00 00 00 00 00 00 00 00 00 00 00
       0.0 0.0 0.0 0.0
000030 00 00 00 00 00 00 00 00 00 00 00 00 00 00 00 00
       0.0 0.0 0.0 0.0
000040 00 00 00 00 00 00 00 00 00 00 00 00 00 00 00 00
       0.0 0.0 0.0 0.0
000050 00 00 00 00 00 00 00 00 00 00 00 00 00 00 00 00
       0.0 0.0 0.0 0.0
000060 00 00 00 00 00 00 00 00 00 00 00 00 00 00 00 00
       0.0 0.0 0.0 0.0
000070 00 00 00 00 00 00 00 00 00 00 00 00 00 00 00 00
       0.0 0.0 0.0 0.0
000080 00 00 00 00 00 00 00 00 00 00 00 00 00 00 00 00
       0.0 0.0 0.0 0.0
000090 00 00 00 00 00 00 00 00 00 00 00 00 00 00 00 00
       0.0 0.0 0.0 0.0
0000a0 00 00 00 00 00 00 00 00 00 00 00 00 00 00 00 00
       0.0 0.0 0.0 0.0
0000b0 00 00 00 00 00 00 00 00 00 00 00 00 00 00 00 00
       0.0 0.0 0.0 0.0
0000c0 00 00 00 00 00 00 00 00 00 00 00 00 00 00 00 00
       0.0 0.0 0.0 0.0
0000d0 00 00 00 00 00 00 00 00 00 00 00 00 00 00 00 00
       0.0 0.0 0.0 0.0
0000e0 00 00 00 00 00 00 00 00 00 00 00 00 00 00 00 00
       0.0 0.0 0.0 0.0
0000f0 00 00 00 00 00 00 00 00 00 00 00 00 00 00 00 00
       0.0 0.0 0.0 0.0

bns.0.running_var f4 [64]
000000 00 00 80 3f 00 00 80 3f 00 00 80 3f 00 00 80 3f
       1.0 1.0 1.0 1.0
000010 00 00 80 3f 00 00 80 3f 00 00 80 3f 00 00 80 3f
       1.0 1.0 1.0 1.0
000020 00 00 80 3f 00 00 80 3f 00 00 80 3f 00 00 80 3f
       1.0 1.0 1.0 1.0
000030 00 00 80 3f 00 00 80 3f 00 00 80 3f 00 00 80 3f
       1.0 1.0 1.0 1.0
000040 00 00 80 3f 00 00 80 3f 00 00 80 3f 00 00 80 3f
       1.0 1.0 1.0 1.0
000050 00 00 80 3f 00 00 80 3f 00 00 80 3f 00 00 80 3f
       1.0 1.0 1.0 1.0
000060 00 00 80 3f 00 00 80 3f 00 00 80 3f 00 00 80 3f
       1.0 1.0 1.0 1.0
000070 00 00 80 3f 00 00 80 3f 00 00 80 3f 00 00 80 3f
       1.0 1.0 1.0 1.0
000080 00 00 80 3f 00 00 80 3f 00 00 80 3f 00 00 80 3f
       1.0 1.0 1.0 1.0
000090 00 00 80 3f 00 00 80 3f 00 00 80 3f 00 00 80 3f
       1.0 1.0 1.0 1.0
0000a0 00 00 80 3f 00 00 80 3f 00 00 80 3f 00 00 80 3f
       1.0 1.0 1.0 1.0
0000b0 00 00 80 3f 00 00 80 3f 00 00 80 3f 00 00 80 3f
       1.0 1.0 1.0 1.0
0000c0 00 00 80 3f 00 00 80 3f 00 00 80 3f 00 00 80 3f
       1.0 1.0 1.0 1.0
0000d0 00 00 80 3f 00 00 80 3f 00 00 80 3f 00 00 80 3f
       1.0 1.0 1.0 1.0
0000e0 00 00 80 3f 00 00 80 3f 00 00 80 3f 00 00 80 3f
       1.0 1.0 1.0 1.0
0000f0 00 00 80 3f 00 00 80 3f 00 00 80 3f 00 00 80 3f
       1.0 1.0 1.0 1.0

classifier.weight f4 [6, 64]
000000 59 b3 5b bd cc 5f fb 3d 67 43 f0 3d 6d a3 20 bc
       -0.053637836 0.12274131 0.11731606 -0.009804589
000010 9d 14 ea bc 45 66 a3 3d de bf 9d 3b c7 96 ad 3c
       -0.028574282 0.07978491 0.004814132 0.02119006
000020 58 6b 89 bd 25 19 1b 3e 2d ae 44 bd a7 b4 93 bc
       -0.06709927 0.1514631 -0.04801767 -0.018030478
000030 62 db 63 3d a5 31 7b bc 43 38 94 bd fc 42 01 3e
       0.05562914 -0.01533166 -0.072372936 0.12623209
000040 f8 c4 1d bd 82 ba a2 3d 49 33 a3 3c bb af 5b bc
       -0.038517922 0.0794573 0.019921916 -0.013408597
000050 a3 5c 01 3b c2 02 c1 3d c4 66 00 3e 84 81 4d 3c
       0.0019739054 0.09424354 0.12539202 0.012543086
000060 7f 78 0e 3e 6c a3 64 bd a8 51 62 bd 68 65 ef 3d
       0.13913153 -0.055819914 -0.055253655 0.116892636
000070 01 0d b0 3d 33 99 02 3d 79 de 67 3d 64 58 03 be
       0.0859623 0.031884383 0.05660865 -0.12826687
000080 97 46 c1 3d 69 53 93 bd a3 04 f9 3d 80 39 ec 3b
       0.09437292 -0.071936436 0.121590875 0.007209003
000090 03 3f f9 3d c9 dd 72 bc 7f f1 0f bd a5 5e c2 bd
       0.12170222 -0.0148233855 -0.035142418 -0.09490708
0000a0 4c 82 07 bd 40 ec 83 3d ce ef 2f bd ab 3a f4 3c
       -0.033083245 0.064415455 -0.042953305 0.029813131
0000b0 49 d6 c8 3c 8f 4e 4d 3c 10 a1 11 bd 90 76 13 be
       0.024516242 0.012530937 -0.03555399 -0.14400697
0000c0 08 4a 8f bd 94 bd 82 bd 99 a2 a2 3c 77 1d 98 3b
       -0.06996542 -0.063838154 0.019852923 0.0046421844
0000d0 b7 91 6a 3d d1 45 e5 3c ad 86 95 bb 4a d7 02 be
       0.05726787 0.027987393 -0.0045631737 -0.12777439
0000e0 b5 e2 8e 3d 7f 01 e3 3d 34 11 61 bc 59 84 ac bc
       0.06976835 0.1108427 -0.013737012 -0.021059202
0000f0 fe 7c 97 3c ca fd 56 3d d5 58 ee 3d 2e ca cb bd
       0.018492218 0.052488126 0.11638037 -0.09950672
000100 1e be a4 bc bc f8 f9 3d 0a 72 08 3e d7 30 1e 3e
       -0.020110186 0.122056454 0.13324752 0.15448318
000110 03 47 55 bd e7 a6 34 3d f4 47 42 bd ec 00 9a bc
       -0.052069675 0.044104483 -0.0474319 -0.018799268
000120 4a f4 73 3d 30 8a 46 3b 28 77 a5 bd e2 52 92 3d
       0.059559144 0.0030294769 -0.08079368 0.07144715
000130 88 d4 b5 3d 25 67 56 3d 9f 74 34 3c ae 5e 55 3d
       0.08878428 0.05234446 0.011014133 0.052092247
000140 4e a4 f9 3c f3 2e e2 3a 1b be 91 3c c5 ae 8e bd
       0.030473854 0.0017256424 0.017790845 -0.069669284
000150 d5 25 e3 3d 8d 47 28 3e 67 f7 68 bc 14 3a fd 3d
       0.110912 0.16433544 -0.014219142 0.12364593
000160 f9 a0 4f bc a5 06 ce 3d 79 b7 86 bd 44 d1 1f 3e
       -0.012672656 0.10059861 -0.065779634 0.15607172
000170 63 66 86 3d 60 eb f4 bc 67 ad 4e bd cf 83 60 bd
       0.065624975 -0.029897392 -0.050458338 -0.054813202
000180 be 8b c7 bb 16 92 03 be 7b 87 c4 3d 1e ac e5 bd
       -0.0060896566 -0.12848696 0.09596153 -0.112144694
000190 86 6a d6 3d 84 8e f3 3d b8 4c 3f bd 33 4f da bd
       0.104695365 0.11892417 -0.046704024 -0.10659637
0001a0 38 4b e7 3d 6e fd fe 3d aa f1 d9 3c a4 e1 0f 3d
       0.11293644 0.124506816 0.026604492 0.035127297
0001b0 a7 9d 43 3b 33 15 f4 bc f4 42 2a 3e 92 72 0a 3d
       0.0029848607 -0.029795265 0.16627103 0.03380067
0001c0 1c d3 7d bd 14 7c 80 3c 8f cb 9b bd 0e 0a 36 3d
       -0.061968908 0.015684165 -0.07607185 0.044443183
0001d0 d1 6a 77 bc dc 11 27 3d 61 6c 7f 3b c0 e1 5c bd
       -0.015101151 0.040788516 0.003897451 -0.05392623
0001e0 62 e7 2f bd 22 3c 01 bd b2 e2 61 3d 36 bc b0 3d
       -0.042945273 -0.031551488 0.055147834 0.086296484
0001f0 2e e9 ec 3d 3a 68 14 3e 34 f3 ae bc 38 eb 81 bd
       0.11567913 0.14492884 -0.021356203 -0.063436925
000200 79 39 8d bd e4 bf aa bd 68 77 0c 3d 81 40 2b bd
       -0.06895728 -0.083373815 0.034293562 -0.041809563
000210 fb 21 33 3d 95 dc b7 bd d7 10 ee 3d 89 72 54 bd
       0.04373358 -0.089776196 0.11624306 -0.05186704
000220 fd 0b af 3d 65 96 03 bd 69 45 21 bd a7 28 d9 bc
       0.085472085 -0.03212585 -0.039372835 -0.026508642
000230 ac 38 8f bd 0c 8a 45 3d 28 9a a0 3d f5 b2 8f 3d
       -0.06993231 0.048227355 0.07841903 0.07016555
000240 ee bd 91 3d 9b 41 46 bd 95 bd 86 bd 1f f5 66 3d
       0.07116304 -0.04840241 -0.06579129 0.05638611
000250 fc ff 96 3d 57 4e c6 3d ec e9 2e 3d 88 38 83 3d
       0.07373044 0.09682911 0.042703554 0.06407267
000260 98 1e 80 3d ab 38 6d bd 96 0c f1 3c 11 74 cd 3c
       0.06255835 -0.05791537 0.029424947 0.025079759
000270 2b 8d 2b 3d db bf 00 bd ff 5b 87 3c 25 59 7f bd
       0.041882675 -0.031432968 0.01652336 -0.062340874
000280 e0 c6 1f 3d bc c1 22 bb 63 96 ba bd d2 67 31 3d
       0.03900802 -0.0024834713 -0.09110715 0.0433119
000290 aa 70 b3 bd da f8 61 bd 0a bf e1 3c 58 d9 b6 3d
       -0.08761723 -0.055168964 0.027556915 0.08928174
0002a0 a2 07 10 3c 4b ba 63 3d ac 79 22 3d 53 bd 9e 3d
       0.008790882 0.055597585 0.039666817 0.077509545
0002b0 72 32 d7 3c ba 1e a7 3a a6 09 92 bc eb c5 11 3b
       0.026269171 0.0012750246 -0.017826866 0.0022243212
0002c0 35 4c 5a bd ba fe a2 3d 42 0a 32 bb 21 79 22 bd
       -0.053295333 0.079587415 -0.0027166759 -0.0396663
0002d0 bf 34 e2 3c 2c 6d 13 bd 6d 6a 4e 3d b8 67 47 3d
       0.027613042 -0.035992786 0.050394464 0.0486829
0002e0 4e 4f c7 bd c5 da 68 bd 28 d5 d8 bd 0b a5 81 bd
       -0.09731923 -0.05684926 -0.10587531 -0.063303076
0002f0 fc 81 d3 3c 64 37 83 3d 9f 8f 5a bd d3 fa 65 3d
       0.025818817 0.06407049 -0.053359624 0.056147408
000300 a2 cb 4b 3c 25 e1 aa 3d 9d d4 bd bb fe f7 c2 3c
       0.012438687 0.08343724 -0.0057931677 0.023799893
000310 e0 9e 89 bd f8 c1 5d 3c 26 92 60 bd 45 ed c1 bc
       -0.06719756 0.013535015 -0.054826878 -0.02367271
000320 88 ca 22 3d dd 35 0d bd 31 02 23 bc 7f 10 f3 3c
       0.03974393 -0.034475196 -0.009949253 0.029670952
000330 16 2d 92 3c 22 f8 cd 3b bd 6e 8e bd 2c 10 d8 3d
       0.017843764 0.0062856833 -0.069547154 0.105499595
000340 e7 22 80 bc a4 81 6c 3d 48 45 c7 bd ec d3 97 bd
       -0.015641643 0.057740822 -0.09730011 -0.07413468
000350 0e 4d 8c 3c 62 f5 ad 3b f2 8a 96 3d fc 27 25 bd
       0.017126586 0.005308793 0.073507205 -0.040321335
000360 d2 e3 56 bb 3d aa 9c bc d5 98 f7 3c 6f 07 1a bc
       -0.00327896 -0.019124145 0.030224243 -0.009401186
000370 d8 f0 35 bd f9 3a 98 bd 8f 33 92 bd c5 12 68 3c
       -0.04441914 -0.07433123 -0.0713874 0.014164631
000380 75 6c 11 3d 40 cb a0 bd db 9a 97 3a cd f8 c2 bc
       0.035503823 -0.07851267 0.0011566536 -0.023800278
000390 5b 36 2a 3d 7e 7a 69 3d d9 2a 0b 3d 88 97 73 bb
       0.041555744 0.057001583 0.03397641 -0.0037169177
0003a0 50 df b7 3d 05 39 ab 3d 2e fc cd bd ba 86 32 bd
       0.0897814 0.08360485 -0.10057865 -0.043585517
0003b0 fc a2 bc bc 36 92 0e bd d1 6f 01 bd 39 0d 31 bc
       -0.023026936 -0.034807406 -0.031600777 -0.010806375
0003c0 73 42 8f bd 77 09 ba 3d b7 5f a3 bd 4d 27 2f 3d
       -0.06995096 0.090838365 -0.079772405 0.04276209
0003d0 c6 1d 65 3c 28 d5 a3 3c c2 b2 d5 3d 64 02 a1 3d
       0.013984149 0.019999102 0.10434486 0.07861784
0003e0 67 ce b7 bc 85 43 8e 3d ab 20 b6 bd e5 52 a5 3d
       -0.022437287 0.06946472 -0.0889295 0.080724515
0003f0 9b 50 89 bd 2f 9d f0 3b fd eb 8e bc a3 dc 6c bd
       -0.067048274 0.0073429565 -0.017446512 -0.057827603

classifier.bias f4 [6]
000000 07 6a 73 3c 5d 51 43 3e fd 80 87 3d bd 83 ef bd
       0.014856822 0.19074006 0.066163994 -0.11695049
000010 7f 6d 20 3d de 5d 23 3e
       0.039166924 0.15953776
