OnlineJudge/ai/dl_models/cnn/recommendation.pth (torch, 111011 bytes, 9 tensors)

user_embedding.weight f4 [64, 20]
0	0x3d858326	0.06519155
1	0xbaecb539	-0.001805938
2	0x3dbd289a	0.0923626
3	0xbe84f3fa	-0.2596739
4	0xbdc4ac50	-0.096031785
5	0x3d66e719	0.056372736
6	0xbe9dce11	-0.3082128
7	0x3e3a9b48	0.18223298
8	0x3cffb4e6	0.031214189
9	0xbd21d646	-0.039510988
10	0xbd04fd01	-0.032467846
11	0x3e53cf1e	0.20684478
12	0xbea3ef60	-0.32018566
13	0xbe686b27	-0.22697125
14	0xbea13d00	-0.31491852
15	0xbcd44786	-0.025913011
16	0xbe63ce38	-0.22246635
17	0x3d2a3a90	0.041559756
18	0x3e47d560	0.1951499
19	0xbe1b2e49	-0.15154375
20	0xbdaa6b4b	-0.08321246
21	0x3d0f35c6	0.03496339
22	0xbe545ef9	-0.20739354
23	0x3e41b7e9	0.18917812
24	0xbddf012a	-0.10888894
25	0xbde1e14e	-0.110293016
26	0x3e023cb1	0.12718464
27	0xbdfad745	-0.12248091
28	0x3e38df4e	0.18053934
29	0xbc70d755	-0.014699777
30	0xbe50b113	-0.20380048
31	0xbcc1e6ff	-0.023669718
32	0xbdf6dcf2	-0.12053861
33	0xbe449072	-0.19195727
34	0xbe5bec51	-0.21476866
35	0xbd7132c2	-0.058886297
36	0xbe0f7f80	-0.14013481
37	0xbd1db9e2	-0.03850735
38	0x3e4dece7	0.20109902
39	0x3d94fbc5	0.07274584
40	0xbe33380c	-0.17501849
41	0x3e59f445	0.21284588
42	0xbc27f999	-0.01025238
43	0x3e57c57d	0.2107143
44	0xbd99f858	-0.07518071
45	0xbe360c65	-0.17778166
46	0x3e0b7b7d	0.13621326
47	0xbdec2e09	-0.11532218
48	0x3d667b3d	0.056269873
49	0x3daa50de	0.083162054
50	0xbc77de21	-0.015128643
51	0x3e18cec2	0.14922622
52	0xbcda364a	-0.026637215
53	0xbe596d26	-0.21233043
54	0xbe2a5886	-0.16635332
55	0x3dc2d000	0.09512329
56	0xbdac0078	-0.08398527
57	0xbe5d119d	-0.2158875
58	0x3e6357f5	0.22201522
59	0x3dff8265	0.12476043
60	0x3d4e3159	0.05034003
61	0x3e1c25fc	0.15248865
62	0x3dde4890	0.10853684
63	0x3d9f1faa	0.07769711
64	0x3e5a450e	0.21315405
65	0x3ddb589d	0.10710261
66	0xbdd87db3	-0.1057085
67	0x3be8bcb4	0.0071025733
68	0xbde5ad3d	-0.11214683
69	0xbe0b6a78	-0.13614833
70	0xbe64adf7	-0.22331987
71	0xbe1e7af0	-0.15476584
72	0x3de0b1ed	0.10971437
73	0xbe5d726a	-0.21625677
74	0xbe270f44	-0.16314417
75	0xbc6a20af	-0.014290019
76	0xbdacba05	-0.08433918
77	0x3c17a004	0.009254459
78	0xbe5e8a5a	-0.21732464
79	0x3dc9ade3	0.098476194
80	0x3de2319f	0.11044621
81	0x3e3ddacc	0.18540496
82	0x3e1d80af	0.1538112
83	0xbe2ab2ec	-0.16669816
84	0x3eaa8138	0.3330171
85	0x3c037398	0.008023165
86	0xbe4c6f5e	-0.19964358
87	0xbe7fdb0a	-0.249859
88	0xbdd61048	-0.10452324
89	0xbe136cae	-0.14396927
90	0x3dc89ca8	0.09795505
91	0x3db7972b	0.0896438
92	0xbe2547cf	-0.16140674
93	0x3e56e554	0.20985919
94	0xbdd5e4b4	-0.10444012
95	0x3dd3e451	0.10346282
96	0xbe0be8f9	-0.13663091
97	0xbc026406	-0.007958418
98	0x3e2d7120	0.16937685
99	0x3ca84e95	0.020545283
100	0x3c5e5975	0.013571133
101	0xbda3a910	-0.079912305
102	0x3e097262	0.1342254
103	0x3eaeb397	0.3412139
104	0xbf3342cb	-0.70023793
105	0x3e3b7a84	0.18308455
106	0x3dc71e13	0.09722533
107	0x3e391d3c	0.18077558
108	0xbe26913d	-0.16266342
109	0xbcdfd172	-0.027321551
110	0xbec3bc8a	-0.3822978
111	0xbf019206	-0.5061344
112	0x3e85442b	0.2602857
113	0xbdeecada	-0.116597846
114	0x3ecf68d5	0.40509668
115	0xbed1e845	-0.4099752
116	0x3ddcba14	0.10777679
117	0xbe5693a8	-0.20954764
118	0xbe34d1d3	-0.17658167
119	0x3e97713a	0.29578573
120	0xbda21a40	-0.07915163
121	0xbe1c044f	-0.15236019
122	0xbe26bcb5	-0.16282924
123	0xbe05706b	-0.13031165
124	0x3c587ef5	0.013213863
125	0xbe428b22	-0.18998387
126	0xbdd69838	-0.10478252
127	0xbb11edfd	-0.0022267096
128	0x3e4ae98b	0.19815652
129	0xbe0b93e2	-0.13630632
130	0xbe23ab97	-0.15983425
131	0xbdac67fc	-0.08418271
132	0xbe02de2e	-0.12780067
133	0xbe5f7e65	-0.2182556
134	0xbd5545fd	-0.0520687
135	0x3e25353a	0.16133586
136	0xbdc257d0	-0.09489405
137	0xbe28755e	-0.16451022
138	0x3df47e6c	0.119381756
139	0x3dff23d3	0.12458005
140	0x3e55d3be	0.20881554
141	0x3e9e1d31	0.30881646
142	0x3eb044af	0.344274
143	0xbe38492e	-0.17996666
144	0x3c5af2c4	0.013363544
145	0xbe05a54f	-0.13051341
146	0xbd9dca5e	-0.07704614
147	0xbe130082	-0.14355662
148	0xbe91918a	-0.2843135
149	0xbe2268e7	-0.1586033
150	0x3e1b6c47	0.15178023
151	0xbd2b6960	-0.04184854
152	0x3e06aac0	0.13151073
153	0xbe391a81	-0.18076517
154	0x3c10680d	0.00881387
155	0x3e708b9e	0.2349076
156	0x3e0c9437	0.13728414
157	0x3d8c8982	0.06862165
158	0x3e24bf6a	0.16088644
159	0x3ccdfe14	0.025145568
160	0x3dfdac90	0.12386429
161	0xbdbaa747	-0.09113937
162	0x3e46360a	0.19356552
163	0xbcb661e7	-0.02226348
164	0xbe0a4828	-0.13504088
165	0x3e113184	0.14179045
166	0xbdd9d1c1	-0.106357105
167	0xbcf7ca61	-0.030247869
168	0xbdcbe425	-0.099556245
169	0xbdbd6a99	-0.092488475
170	0xbe07ebc0	-0.13273525
171	0xbe468d43	-0.19389825
172	0xbe0b4e93	-0.13604192
173	0xbd1e98df	-0.038720008
174	0xbcb75f06	-0.022384178
175	0x3de6dbe5	0.1127241
176	0x3deb35b8	0.114848554
177	0xbd633c9f	-0.055477735
178	0xbd314877	-0.043282
179	0x3d8e2855	0.069412865
180	0xbd5aea31	-0.053446
181	0x3dba853b	0.09107443
182	0xbcb78821	-0.022403779
183	0xbcc33d5f	-0.023832975
184	0x3e027969	0.12741627
185	0xbe02e4f9	-0.12782659
186	0xbe203786	-0.1564618
187	0x3dd12e00	0.10213852
188	0x3da35af4	0.07976332
189	0xbe194388	-0.14967167
190	0x3e68c1ca	0.22730175
191	0x3ee97410	0.4559636
192	0xbe01d219	-0.12677802
193	0x3df8b015	0.1214296
194	0x3d10ba8a	0.035334148
195	0x3eba7f8f	0.36425444
196	0xbd33d997	-0.04390868
197	0x3e639c80	0.22227669
198	0x3e90a24a	0.28248817
199	0xbe16569e	-0.1468148
200	0xbd65ac3c	-0.05607246
201	0x3d93de93	0.07220187
202	0xbe630d7d	-0.22173114
203	0xbe47533d	-0.19465347
204	0x3e23621d	0.15955396
205	0xbe4b7e43	-0.19872384
206	0x3db51935	0.088426985
207	0xbd95f4db	-0.07322093
208	0xbe58f5dc	-0.21187538
209	0x3d2d83da	0.04236207
210	0xbc2d0bdc	-0.0105619095
211	0x3d99e117	0.075136356
212	0xbcf44ae8	-0.029820874
213	0x3d62d6f7	0.055380788
214	0xbe602836	-0.2189034
215	0xbe30a658	-0.17250955
216	0xbc7fde42	-0.015616955
217	0x3e649e55	0.22326024
218	0xbdbf1378	-0.09329885
219	0xbdf0c2a1	-0.117558725
220	0xbe0916a3	-0.13387541
221	0xbe0090b5	-0.12555201
222	0x3ea73dce	0.3266434
223	0x3e76a6f7	0.2408713
224	0xbee77a72	-0.45210606
225	0xbe51e73a	-0.20498362
226	0x3e87c6e0	0.26518917
227	0x3cf06a92	0.029347692
228	0xbcb23397	-0.021753116
229	0x3d704d22	0.05866731
230	0xbd221e6f	-0.039579805
231	0xbda97b8e	-0.08275519
232	0xbd5064cc	-0.050877377
233	0x3dff971f	0.12479996
234	0x3e0948ba	0.13406649
235	0xbea7f2ef	-0.3280253
236	0x3dea1830	0.11430395
237	0xbe0eeed4	-0.13958293
238	0xbe826810	-0.25470018
239	0x3e8a1bbe	0.2697429
240	0xbd9848cf	-0.07435762
241	0xbe7fd924	-0.24985176
242	0xbb9e85c9	-0.004837726
243	0x3dfaa764	0.122389585
244	0xbeb27cf5	-0.3486096
245	0xbc83d08f	-0.01609066
246	0x3de005b7	0.1093859
247	0xbe0d986d	-0.13827677
248	0x3e11b1e8	0.14228022
249	0x3e516038	0.20446861
250	0xbd064f17	-0.03279027
251	0xbdfa6067	-0.122254185
252	0xbd888a24	-0.06666973
253	0x3d9261c0	0.071475506
254	0x3dc74a40	0.09730959
255	0xbf08a6de	-0.5337962

user_embedding.bias f4 [64]
0	0x3db88221	0.09009195
1	0x3e1e3ef8	0.15453708
2	0x3dab01fa	0.083499864
3	0x3da510c0	0.080598354
4	0x3c7e1de2	0.015510054
5	0x3e8f9b0b	0.28047976
6	0x3d3d72dc	0.046252117
7	0xbda14634	-0.07874718
8	0xbe5327f0	-0.20620704
9	0x3ddd27d1	0.1079861
10	0x3d00c346	0.031436227
11	0x3d383531	0.044972602
12	0xbd8e9adc	-0.06963131
13	0x3d6156fc	0.055014595
14	0x3e474df6	0.19463333
15	0x3e1644cf	0.14674686
16	0x3e77f587	0.24214755
17	0x3d822359	0.06354398
18	0xbd9eb144	-0.077486545
19	0xbdda9e45	-0.10674719
20	0xbd3e77ed	-0.04650109
21	0xbe466844	-0.19375712
22	0xbe18f90f	-0.14938758
23	0xbda0f3d7	-0.07859009
24	0xbe609947	-0.2193347
25	0xbdd9405d	-0.106079794
26	0x3e029a52	0.12754181
27	0x3dad8f45	0.08474592
28	0x3e3001c3	0.17188172
29	0x3e06bb69	0.13157429
30	0xbdfa6881	-0.12226964
31	0xbdca44c2	-0.09876396
32	0xbe63b4ba	-0.2223691
33	0xbbc1ef6f	-0.0059184353
34	0xbd0abfd3	-0.033874344
35	0xbe22990b	-0.15878694
36	0xbe0c9eaa	-0.137324
37	0x3dbcd9ca	0.092212275
38	0x3d7006d0	0.058600247
39	0x3e84dd27	0.25949976
40	0x3e1952b5	0.14972956
41	0xbe4ee891	-0.20205905
42	0x3e26e745	0.1629916
43	0xbd17fa0a	-0.03710369
44	0x3deb060d	0.114757635
45	0xba25505e	-0.0006306226
46	0xbbedf19f	-0.0072614695
47	0xbe4315d2	-0.19051293
48	0x3d8118b1	0.06303538
49	0xbadcb624	-0.001683895
50	0xbb4fff4a	-0.0031737857
51	0x3e088d2d	0.13335104
52	0xbde951b6	-0.11392538
53	0x3e3bdfa0	0.18347025
54	0xbddb7a03	-0.10716631
55	0xbd7efc4b	-0.062252324
56	0x3d500e5c	0.050794944
57	0xbdf5e2d4	-0.12006155
58	0xbe41deea	-0.18932691
59	0xbdeea989	-0.1165343
60	0x3e1d4547	0.15358458
61	0xbe8ebb8d	-0.27877465
62	0xbe947344	-0.2899419
63	0xbe29d547	-0.16585265

problem_embedding.weight f4 [64, 10]
0	0x3dc708df	0.09718489
1	0xbebf9f55	-0.37426248
2	0xbe4bf0fa	-0.19916144
3	0x3ed96384	0.42458737
4	0x3c63f5da	0.013913596
5	0xbed1b16b	-0.40955672
6	0xbea3e905	-0.32013717
7	0x3dee7ff7	0.11645501
8	0x3cd65606	0.026164066
9	0xbe896842	-0.26837355
10	0xbe2844ac	-0.16432446
11	0x3dc874ab	0.09787878
12	0x3e2c0308	0.16798031
13	0xbec14a04	-0.37751782
14	0xbea8ac33	-0.32943878
15	0x3d82d756	0.06388728
16	0x3e48b6ac	0.19600934
17	0x3d619d13	0.05508144
18	0xbd93c2a7	-0.07214861
19	0x3e843071	0.25818208
20	0x3ea2e12b	0.31812415
21	0x3dbd7e40	0.09252596
22	0x3e15bf4b	0.14623754
23	0x3e7cbdc2	0.24681762
24	0x3dbd4013	0.09240737
25	0x3d970bae	0.073752746
26	0xbd5ef7fb	-0.05443571
27	0xbd48b072	-0.048996396
28	0x3e675716	0.22591814
29	0xbe4c5b45	-0.19956692
30	0xbec6cbaa	-0.38827258
31	0x3ea6c2bf	0.32570454
32	0x3c7e8b79	0.015536183
33	0xbf369faf	-0.7133741
34	0x3edb3993	0.42817363
35	0x3d6aea12	0.057352133
36	0x3ee694f8	0.4503553
37	0xbe8d0667	-0.27543947
38	0x3d972398	0.07379836
39	0xbe6639c0	-0.22482967
40	0xbe06ab9c	-0.13151401
41	0x3e94465a	0.28959924
42	0x3d7f51b6	0.062333785
43	0x3d221df9	0.039579365
44	0x3e957468	0.29190373
45	0x3dda16f1	0.10648907
46	0x3eccaf68	0.39977574
47	0xbec1cd99	-0.3785217
48	0x3da54274	0.080693156
49	0xbe2360f7	-0.15954958
50	0x3df7a9bf	0.120929234
51	0xbe673517	-0.22578846
52	0xbe45c3e8	-0.19313014
53	0x3e87acdb	0.26499066
54	0xbed40ba5	-0.41415134
55	0xbedfa0d9	-0.43677405
56	0x3db8997f	0.09013652
57	0x3de178bb	0.11009356
58	0x3e6cdb61	0.23130561
59	0x3c133b30	0.008986279
60	0x3e9f2630	0.31083822
61	0xbf150277	-0.58206886
62	0x3d6651a8	0.056230217
63	0x3e0f2b09	0.1398126
64	0xbe90d284	-0.2828561
65	0xbeeb5406	-0.45962542
66	0xbecefd06	-0.40427417
67	0x3e045495	0.1292289
68	0x3e13548e	0.14387724
69	0xbe8e8986	-0.27839297
70	0x3f053df8	0.5204768
71	0xbf065e12	-0.5248729
72	0x3e93d2b4	0.2887169
73	0xbc5fe8e6	-0.013666367
74	0x3e7eca2a	0.24881807
75	0xbf19f053	-0.6013233
76	0xbe8641e1	-0.26222137
77	0x3de59cfa	0.112115815
78	0xbe402b79	-0.18766584
79	0xbe89a087	-0.26880285
80	0x3dedb65e	0.116070494
81	0x3e4f4d6e	0.20244381
82	0xbe2e5161	-0.17023231
83	0x3e3a2ee9	0.18181957
84	0x3eb2c526	0.34916037
85	0xbd3f36fa	-0.04668329
86	0xbd9be88f	-0.076127164
87	0xbe39e5d7	-0.18154083
88	0x3de65c35	0.11248056
89	0xbe0c558f	-0.13704513
90	0x3d8660c9	0.06561429
91	0xbcc588fc	-0.02411317
92	0xbe799241	-0.24372198
93	0xbe661825	-0.22470148
94	0x3efacbe3	0.48983678
95	0xbdd5399d	-0.104113795
96	0x3e125b3f	0.1429262
97	0xbe502eef	-0.20330404
98	0x3e6148cf	0.2200043
99	0xbddbfad4	-0.10741201
100	0xbdf4f123	-0.11960056
101	0x3cb734bb	0.022364011
102	0xbe74037e	-0.23829457
103	0x3e50b2c2	0.2038069
104	0x3e6dc161	0.232183
105	0x3e8a2ed6	0.26988858
106	0x3e9dc70e	0.3081593
107	0xbe0aae9c	-0.1354317
108	0x3e032e04	0.12810522
109	0xbe7ebd40	-0.2487688
110	0xbef259f2	-0.47334248
111	0xbdba3639	-0.090923734
112	0xbe0e2c90	-0.13884187
113	0xbf8702ef	-1.054777
114	0x3c8e7fc8	0.017394915
115	0x3d8d0599	0.06885833
116	0x3e4fc8ee	0.20291492
117	0xbc898f33	-0.016791916
118	0x3e4c1de2	0.19933274
119	0xbdb67953	-0.089098595
120	0x3ee75f15	0.4518973
121	0xbe0600ce	-0.13086244
122	0x3e352efc	0.17693704
123	0xbe9c9e6e	-0.30589622
124	0xbe6d3d9b	-0.23168032
125	0x3e6617a5	0.22469957
126	0xbe9d60b3	-0.30737838
127	0xbd858ef2	-0.06521405
128	0x3e8dd254	0.2769953
129	0xbd3f7b7e	-0.04674863
130	0xbdb0f60d	-0.086406805
131	0xbea96d96	-0.3309142
132	0xbe7909e4	-0.24320179
133	0xbd87f909	-0.066392966
134	0xbe13d872	-0.14438036
135	0x3c10d7b2	0.008840488
136	0x3e3b300e	0.1828005
137	0xbe54bf30	-0.20776057
138	0xbe292e65	-0.16521604
139	0xbe619c88	-0.22032368
140	0xbe59ef7d	-0.21282764
141	0xbdaa2933	-0.083086394
142	0xbdc6a598	-0.09699553
143	0xbf775c3b	-0.9662511
144	0xbdc7b1ed	-0.097507335
145	0x3c5fcb95	0.013659378
146	0xbd75f332	-0.060046382
147	0x3dc5636e	0.09638105
148	0xbe34efb0	-0.17669559
149	0xbe1e14fe	-0.15437695
150	0x3eab077c	0.33404148
151	0x3d198862	0.03748358
152	0xbd6f1b38	-0.058375567
153	0xbd85de24	-0.065365106
154	0xbe9b8a54	-0.30378973
155	0xbbf0ec50	-0.0073523894
156	0x3d2bdd1e	0.04195892
157	0xbb93207f	-0.004489958
158	0x3e4a257d	0.19740863
159	0x3db2d00b	0.08731087
160	0xbec5b140	-0.38611794
161	0x3e792593	0.2433074
162	0xbe96ce2c	-0.29454172
163	0xbf3240c2	-0.6963006
164	0xbeaa77ad	-0.3329443
165	0x3dadcdb8	0.08486503
166	0xbe3f39b0	-0.1867435
167	0x3de640b5	0.11242811
168	0x3d186144	0.037202135
169	0x3e971f67	0.29516146
170	0x3e1154be	0.14192483
171	0xbe8cd479	-0.27505854
172	0xbe505514	-0.20344955
173	0xbf07ae1d	-0.5300005
174	0x3e2163e1	0.15760757
175	0x3dfe8b74	0.12428942
176	0xbe3598d4	-0.1773408
177	0xbd8eb8a1	-0.06968809
178	0xbcdbda38	-0.026837453
179	0xbea0c24d	-0.3139824
180	0xbea70ca6	-0.32626837
181	0x3e812251	0.25221494
182	0xbdefd0d0	-0.1170975
183	0xbf40ab20	-0.75261116
184	0x3f098ffd	0.53735334
185	0x3d274deb	0.040845793
186	0xbe16b496	-0.14717326
187	0xbe94ad06	-0.29038256
188	0xbe97b7d2	-0.2963243
189	0xbe8dea20	-0.27717686
190	0xbe8a16cc	-0.26970518
191	0x3eff04dd	0.49808398
192	0xbe41028a	-0.18848625
193	0xbf10f94b	-0.5663039
194	0x3ee8d7d5	0.45477167
195	0xbd73205c	-0.059357032
196	0x3ed07b8f	0.40719268
197	0xbc3e3693	-0.011609691
198	0xbe1e59cd	-0.15463944
199	0x3d8269d3	0.063678406
200	0xbe4b9478	-0.19880855
201	0x3e3a734a	0.18208042
202	0x3e88e1a3	0.26734647
203	0x3e81e239	0.25367907
204	0x3d51aad7	0.051188316
205	0xbe533f62	-0.20629647
206	0xbe941ad6	-0.28926724
207	0xbe476617	-0.19472538
208	0xbe1dff91	-0.15429522
209	0xbe3341ab	-0.17505519
210	0xbd93ba50	-0.07213271
211	0x3e301ce9	0.17198528
212	0x3e9dc44a	0.3081382
213	0xbbd37fe3	-0.0064544543
214	0x3d8afdb1	0.06786669
215	0xbdea7648	-0.114483416
216	0xbe580a06	-0.21097574
217	0xbcd5d996	-0.02610473
218	0x3df9dc38	0.122002065
219	0x3e0ec337	0.13941656
220	0x3dcf68e4	0.10127428
221	0xbe404153	-0.18774919
222	0xbdc7149c	-0.09720728
223	0x3ed43caa	0.41452533
224	0xbe9f5330	-0.31118155
225	0x3e8e690d	0.27814522
226	0xbcd77c5a	-0.026304413
227	0x3da8d137	0.082430296
228	0x3e7bc16c	0.24585503
229	0xbdc78d13	-0.09743705
230	0xbf235427	-0.6380028
231	0xbc80241a	-0.015642215
232	0xbe54ffab	-0.20800655
233	0xbf83eab5	-1.0306002
234	0x3d4edd78	0.050504178
235	0xbdd03b61	-0.10167576
236	0xbdee2293	-0.11627688
237	0x3d82a40c	0.06378946
238	0x3dfbb370	0.12290084
239	0x3e86df66	0.26342314
240	0x3eee14f6	0.46500367
241	0xbe130433	-0.1435707
242	0x3e255600	0.16146088
243	0x3c885438	0.016641721
244	0xbcb5adb8	-0.022177562
245	0x3e2e1ab0	0.17002368
246	0xbe44ca7b	-0.19217865
247	0x3d2061d1	0.039155785
248	0xbe7637b2	-0.24044684
249	0x3dbe44be	0.09290455
250	0x3d4bd67d	0.0497651
251	0xbd15b618	-0.03655061
252	0xbe4919da	-0.19638768
253	0xbe8e9432	-0.2784744
254	0xbe30743a	-0.17231837
255	0x3c8adff3	0.01695249

problem_embedding.bias f4 [64]
0	0xbe822c6b	-0.25424513
1	0xbe85adb3	-0.26109084
2	0xbe3e8528	-0.18605483
3	0x3e31748b	0.17329614
4	0xbe21678f	-0.1576216
5	0xbe01ab05	-0.12662895
6	0xbe87d09b	-0.2652634
7	0x3e6eb2e7	0.23310433
8	0x3eef5469	0.46744087
9	0x3eb7dace	0.35909122
10	0x3e2f678b	0.17129342
11	0xbebfc33d	-0.37453642
12	0xbe71eba3	-0.23625045
13	0x3df3094d	0.11867008
14	0xbec1c00a	-0.37841827
15	0x3e3532bf	0.1769514
16	0xbe85b434	-0.26114047
17	0x3dd7e5e5	0.10541896
18	0x3e3b3770	0.18282866
19	0x3e2dd1f3	0.1697462
20	0xbe2da703	-0.16958241
21	0xbd773fad	-0.06036346
22	0xbe85c3af	-0.26125857
23	0x3b77beb0	0.0037802868
24	0xbda05e68	-0.078305066
25	0x3e7964a3	0.24354796
26	0xbe1f2aa5	-0.15543611
27	0x3dc8145b	0.097695075
28	0xbdcc6114	-0.09979454
29	0xbe48a22a	-0.1959311
30	0xbe227201	-0.15863802
31	0x3eb921fa	0.36158735
32	0x3ddc7bae	0.107657775
33	0x3dec5680	0.11539936
34	0xbe9c5c41	-0.30539134
35	0x3e506764	0.2035194
36	0xbe51beb0	-0.20482898
37	0xbe013377	-0.12617289
38	0x3d9a633e	0.0753846
39	0x3cc7a46c	0.024370395
40	0x3e77a383	0.24183469
41	0xbe712aa6	-0.23551425
42	0xbd89f0ca	-0.0673538
43	0xbe43693a	-0.1908311
44	0xbecddf05	-0.40209213
45	0xbe07f77a	-0.13277999
46	0xbdd9f07b	-0.10641571
47	0x3e0afd9a	0.13573304
48	0x3e70057f	0.23439597
49	0x3d34b203	0.044115078
50	0x3e92e509	0.28690365
51	0xbe892a37	-0.2679002
52	0xbe8769e7	-0.26447985
53	0xbeb51e1c	-0.35374534
54	0xbe772880	-0.24136543
55	0xbdfb8e35	-0.12282983
56	0x3eaf1a8b	0.34199938
57	0x3db93a23	0.09044292
58	0x3e979c03	0.29611215
59	0x3e078692	0.13234928
60	0x3e8d2472	0.27566868
61	0xbe1f0f62	-0.15533212
62	0x3db7869e	0.08961223
63	0x3ef46d29	0.47739533

fc1.weight f4 [128, 128]
0	0x3cd25c27	0.025678707
1	0x3d079d05	0.03310873
2	0xbd89879f	-0.06715321
3	0x3ceb990c	0.028759502
4	0x3d6eb7ae	0.05828064
5	0x3e1c02ea	0.15235487
6	0xbb9adc35	-0.0047259578
7	0x3df4411c	0.11926481
8	0xbbecde11	-0.007228621
9	0x3d9c4a28	0.07631332
10	0x3da73c62	0.08165814
11	0x3e450f67	0.19244157
12	0xbd48af4e	-0.04899531
13	0xbd7b403e	-0.061340563
14	0x3d3261e8	0.043550402
15	0x3d3a795a	0.045525886
16	0x3e43d62d	0.1912467
17	0x3e577986	0.21042451
18	0x3df55f9a	0.11981125
19	0x3dc8979a	0.09794541
20	0x3dfe4827	0.12416106
21	0x3e090330	0.13380122
22	0xbd01866c	-0.031622335
23	0xba955cae	-0.0011395419
24	0x3cc01cc0	0.023451209
25	0x3cd4025b	0.02588003
26	0x3d8b1ace	0.06792222
27	0xbd9fcc9f	-0.078027
28	0xbd9bc282	-0.07605459
29	0x3e2459e2	0.16049913
30	0xbd990042	-0.07470752
31	0x3ccfdfff	0.025375364
32	0xbd2a6d92	-0.0416084
33	0xbcc17121	-0.023613514
34	0x3bb49e6f	0.005512051
35	0xbccafa5b	-0.024777582
36	0x3da0f217	0.07858675
37	0x3c9d41d8	0.019196436
38	0xbda1db07	-0.07903104
39	0xbd8224a4	-0.06354645
40	0xbd11f2d6	-0.035631977
41	0xbd2b5cce	-0.041836552
42	0x3cb33ec7	0.02188052
43	0xbd8495f4	-0.06473914
44	0xbba1bdab	-0.0049359403
45	0x3c6f8231	0.014618442
46	0x3d7d606e	0.06185954
47	0xbc76618c	-0.015037905
48	0xbb52c943	-0.0032163418
49	0xbced007d	-0.028930897
50	0xbbd37dba	-0.0064541968
51	0x3d9a56a7	0.07536059
52	0x3d4cf230	0.050035655
53	0xbe2e4c21	-0.17021228
54	0xbc85f155	-0.016350428
55	0xbc596213	-0.013268012
56	0x3d8636e8	0.06553441
57	0xbdf6de38	-0.120541036
58	0x3ddd0806	0.10792546
59	0xbd16238d	-0.036654998
60	0xbd4946ed	-0.049139906
61	0xbd5b0b0a	-0.053477325
62	0x3aa2f1b1	0.0012431649
63	0x3dc21db7	0.09478324
64	0x3d9ff9fa	0.07811351
65	0x3d219a89	0.039454017
66	0xbdbd8f59	-0.09255857
67	0xbee37908	-0.44428277
68	0xbe0e3d31	-0.1389053
69	0x3bc34643	0.0059593036
70	0xbbcccb6a	-0.006249835
71	0x3df634f7	0.12021821
72	0xbe832762	-0.25615984
73	0xbe4b0b72	-0.19828585
74	0xbd286dfd	-0.041120518
75	0x38f6fb28	0.000117769756
76	0x3c97dcce	0.018537905
77	0xbd0683a5	-0.03284039
78	0xbda59534	-0.08085099
79	0xbaa97f69	-0.0012931648
80	0x3ca24fb8	0.019813403
81	0xbe20f394	-0.15717918
82	0xbe4d9790	-0.20077348
83	0xbdc4353c	-0.09580466
84	0xbda9f687	-0.082989745
85	0x3c84c89c	0.01620894
86	0x3d3db7f4	0.04631801
87	0x3ce730d1	0.02822152
88	0xbc126649	-0.0089355195
89	0xbd5d8fcc	-0.054092214
90	0x3d465aba	0.048426367
91	0xbe36da17	-0.17856632
92	0xbdbbc51f	-0.09168457
93	0xbe124877	-0.14285456
94	0xbe0dcbfd	-0.13847347
95	0xbec18a4c	-0.37800825
96	0xbd6a7fd8	-0.057250828
97	0x3d7fc0be	0.062439673
98	0xbd1f2146	-0.03885009
99	0x3da16c48	0.07881981
100	0xbd12fac5	-0.035883684
101	0xbe4c0866	-0.19925079
102	0x3dd486ee	0.10377298
103	0x3bb0249f	0.0053754593
104	0xbd847746	-0.06468062
105	0x3da95d21	0.08269716
106	0xbe2504e3	-0.16115145
107	0x3d0908bb	0.03345559
108	0xbdc28898	-0.094987094
109	0xbdf07293	-0.11740603
110	0x3de876fa	0.11350818
111	0x3d27c7d8	0.04096207
112	0x3b64e91f	0.003492899
113	0xbd94838c	-0.07251653
114	0xbd933a6a	-0.07188876
115	0x3d95de23	0.0731776
116	0xbdd955a7	-0.1061204
117	0x3cc5d418	0.024148986
118	0x3d549557	0.051900234
119	0xbe07efba	-0.13275042
120	0xbdb6f491	-0.08933366
121	0xbd4435e5	-0.04790296
122	0xbe8d5b36	-0.2760865
123	0x3e07ae8b	0.13250177
124	0xbd9ff886	-0.07811074
125	0xbd1e896c	-0.038705274
126	0x3d2ace85	0.04170086
127	0xbeceebb7	-0.4041421
128	0xbd187c3c	-0.037227854
129	0xbd473fbb	-0.048644762
130	0xbd1cce16	-0.038282476
131	0x3d1bcd52	0.038037606
132	0xbd6d01c1	-0.057863
133	0x3cb1ff33	0.021728134
134	0x3cb55c90	0.022138864
135	0xbdc35a8e	-0.09538756
136	0x3d9d908f	0.07693588
137	0xbddbe709	-0.10737426
138	0x3d42ed63	0.04758967
139	0x3e25324e	0.16132471
140	0xbd9347f6	-0.0719146
141	0x3c61e3dd	0.013787237
142	0xbb98d766	-0.0046643494
143	0xbd84535c	-0.06461212
144	0xbdae3d0d	-0.08507738
145	0x3e4380a8	0.19092047
146	0x3ce30721	0.02771336
147	0xbd35a4ef	-0.044346746
148	0xbd281e65	-0.04104461
149	0xbba1ba7e	-0.0049355617
150	0x3d109240	0.035295725
151	0x3d525905	0.051354427
152	0x3b7c808c	0.0038528768
153	0x3c3a46cb	0.011369417
154	0xbd49a8d7	-0.049233284
155	0xbe0be4bf	-0.13661478
156	0xbc46a905	-0.012125258
157	0xbc253004	-0.010082249
158	0x3c85afde	0.016319212
159	0xbb0a3dd6	-0.0021093986
160	0xbd263ba2	-0.040584214
161	0x3d850023	0.06494167
162	0x3bd33f8f	0.0064467858
163	0xbd1750d6	-0.036942326
164	0x3da89265	0.082310475
165	0xbbcfd081	-0.0063419943
166	0xbd961977	-0.07329076
167	0x3cc48c3e	0.023992654
168	0xbdecd73d	-0.11564491
169	0xbcdb96ad	-0.026805246
170	0xbd9a6000	-0.07537842
171	0xbb9cfa50	-0.0047905818
172	0xbd21b416	-0.039478384
173	0xbd07b1fb	-0.03312872
174	0x3daf20ad	0.08551154
175	0xbdaf1c2a	-0.08550294
176	0xbdac40d4	-0.084108025
177	0x3d7e1cbc	0.062039122
178	0xbcb8c424	-0.022554465
179	0xbcac368a	-0.0210221
180	0x3d2ffafa	0.04296396
181	0x3c18c279	0.00932371
182	0xba6387cb	-0.00086795975
183	0xbdd31c36	-0.10308115
184	0xbd91bd88	-0.07116228
185	0x3d85d514	0.06534782
186	0xbcbee764	-0.023303695
187	0xbd8586b8	-0.06519836
188	0xbd860ebe	-0.065457806
189	0xbcf04f83	-0.02933479
190	0x3cbf1c4d	0.023328925
191	0xbd78c527	-0.060734894
192	0x3d905be8	0.0704878
193	0xbd8216cc	-0.063520044
194	0xbcbc4a84	-0.02298475
195	0xbdb2d401	-0.08731843
196	0x3d6d9ffc	0.0580139
197	0xbd5c6d60	-0.053815246
198	0xbbc56825	-0.006024378
199	0x3d9d5882	0.07682897
200	0xbc8a240e	-0.016862895
201	0x3c93c742	0.01803935
202	0xbdaa3b20	-0.083120584
203	0xbda4ec27	-0.08052855
204	0xbc84a724	-0.01619298
205	0x3d82db09	0.06389434
206	0x3d065862	0.032799132
207	0xbd431e7b	-0.04763649
208	0xbdea4a06	-0.114399
209	0xbcb53b7b	-0.022123089
210	0x3d85989b	0.06523248
211	0x3d9a2fb5	0.07528631
212	0x3d174c5f	0.036938068
213	0xbd0dde0e	-0.034635596
214	0xbdd3e839	-0.10347027
215	0x3d676302	0.056490906
216	0x3cc61da7	0.024184061
217	0xbb500304	-0.0031740079
218	0x3cde82a5	0.027161906
219	0xbd01b0f5	-0.0316629
220	0xbd094007	-0.033508327
221	0x3c03ec06	0.008051878
222	0x3d811282	0.06302358
223	0xbd9827fe	-0.07429503
224	0xbcfd907d	-0.030952686
225	0xbde0edf4	-0.10982886
226	0xbda41240	-0.080112934
227	0xbdab2e9c	-0.083584994
228	0xbc9b964c	-0.018992566
229	0xbd744ce0	-0.059643626
230	0xbd62e4d3	-0.055394005
231	0x3cda4e3a	0.02664863
232	0x3d01a9cc	0.03165607
233	0xbdb20552	-0.08692421
234	0x3c1e64d0	0.00966759
235	0xbce587d5	-0.028018871
236	0xbdcfa42e	-0.10138737
237	0xbd9a6b03	-0.07539942
238	0xbbf4bba2	-0.0074686566
239	0xbd80aaee	-0.06282602
240	0x3d799b5f	0.06093919
241	0xbd5284ba	-0.05139611
242	0x3daf1f5a	0.08550902
243	0x3d01a7b5	0.03165408
244	0xbdbed604	-0.09318164
245	0x3cd798eb	0.026318034
246	0xbd751f2a	-0.059844173
247	0x3b0a38b7	0.0021090934
248	0x3c9faa3f	0.01949036
249	0x3c15cb6b	0.009142737
250	0x3bba696d	0.0056888373
251	0x3d7c5772	0.06160683
252	0xbd37a97f	-0.04483938
253	0x3d09c0ad	0.033631016
254	0xbd9cd251	-0.07657302
255	0x3d6438c5	0.055718202

fc1.bias f4 [128]
0	0xbb7d0510	-0.0038607754
1	0xbbdd8caa	-0.006761153
2	0xbdededfe	-0.11617659
3	0xbc13f887	-0.0090314215
4	0xbdb686cd	-0.0891243
5	0xbbbe4be4	-0.0058073867
6	0xbd484333	-0.04889221
7	0xbdbaf71d	-0.09129164
8	0xbc57b157	-0.01316484
9	0xbdcd3359	-0.100195594
10	0x3d2737c6	0.040824674
11	0xbd498339	-0.04919741
12	0xbbf1882a	-0.0073709683
13	0x3d88ad4e	0.0667368
14	0xbe0e3766	-0.1388832
15	0x3de08f48	0.10964829
16	0x3c605e7d	0.013694403
17	0x3d774f4f	0.06037837
18	0x3ca23697	0.019801421
19	0xbd5862b9	-0.052828524
20	0x3dbf6fc7	0.09347492
21	0xbc167895	-0.009184022
22	0x3d5b8af4	0.053599313
23	0x3d2378c7	0.039910104
24	0xbdd8c278	-0.10583967
25	0xbd862367	-0.06549721
26	0xbbc3e2ea	-0.005977978
27	0x3d7da588	0.06192544
28	0xbdc1a512	-0.09455313
29	0xbda7a479	-0.081856675
30	0xbd7bc05b	-0.06146274
31	0xbd08c019	-0.033386324
32	0xbddd0a72	-0.10793008
33	0xbd0fc50e	-0.035100035
34	0x3cb092f0	0.02155444
35	0xbd6b90b1	-0.057511035
36	0xbcbd3f2b	-0.02310141
37	0xbd584bb9	-0.05280659
38	0xbde25ee4	-0.11053255
39	0x3b8c6496	0.0042844517
40	0x3ce5adce	0.028036978
41	0x3d78a08f	0.060699996
42	0xbd25320b	-0.040330928
43	0xbe24d1e9	-0.160957
44	0x3da71092	0.081574574
45	0x3cc3d000	0.023902893
46	0xbc840806	-0.016117107
47	0x3c5a96a0	0.013341576
48	0x3db95111	0.09048665
49	0xbd35a53c	-0.044347033
50	0x3d4639e5	0.048395056
51	0x3de4c24f	0.11169874
52	0xbda8eeaf	-0.0824865
53	0x3d1ea5cf	0.038732346
54	0x3d81cc9a	0.06337853
55	0xbe10e234	-0.1414879
56	0xbd66c7f4	-0.056343034
57	0x3d325b18	0.043543905
58	0xbdfaa4fa	-0.12238498
59	0x3d8b0cd1	0.06789554
60	0xbd542d13	-0.0518008
61	0xbcb89c15	-0.022535363
62	0x3c716a34	0.014734793
63	0xbc757ec4	-0.014983837
64	0xbd0eb231	-0.034837905
65	0xbd3b53a1	-0.04573405
66	0xbd6a0e66	-0.057142638
67	0x3e088f66	0.13335952
68	0x3d94ef07	0.07272153
69	0xbce63b1f	-0.028104363
70	0xbd543304	-0.051806465
71	0x3dedb34d	0.116064645
72	0x3cc99974	0.024609305
73	0x3d7c1ef5	0.06155296
74	0xbbc83df8	-0.006110903
75	0xbd5adc44	-0.053432718
76	0xbda89437	-0.08231395
77	0xbd441003	-0.047866832
78	0x3d605794	0.05477102
79	0x3e0eb0de	0.13934657
80	0x3c507e03	0.012725356
81	0x3c4a0826	0.012331044
82	0x3d2c206f	0.04202312
83	0xbd63a683	-0.05557872
84	0xbda2dd62	-0.07952382
85	0x3c3f0ac9	0.011660286
86	0x39b6bc09	0.00034853842
87	0xbd4f714c	-0.050645158
88	0x3dbffb1c	0.09374067
89	0xbd701d6a	-0.0586218
90	0x3a22d3d8	0.0006211377
91	0x3be445e6	0.0069663404
92	0x3d2306bc	0.039801344
93	0xbdd63b64	-0.104605466
94	0xbdad125c	-0.084507674
95	0x3d054e65	0.032545466
96	0xbdb97c93	-0.09056964
97	0x3e3bd9f9	0.18344869
98	0xbd80c3cb	-0.062873445
99	0xbd72b9b2	-0.059259124
100	0xbd893b6e	-0.067007884
101	0x3d69fb6b	0.057124536
102	0x3ca2704c	0.019828938
103	0x3cbfb64c	0.023402356
104	0xbdc68979	-0.096941896
105	0xbdc55d13	-0.09636893
106	0xbde5e60b	-0.11225518
107	0xbcd89e95	-0.026442805
108	0x3d680aa7	0.056650784
109	0xbd08a55c	-0.033360824
110	0xbe09eb76	-0.13468727
111	0x3d50deae	0.050993614
112	0x3ce300a7	0.027710272
113	0xbcc9789b	-0.024593642
114	0xbd9dcebc	-0.07705447
115	0xbde6d281	-0.11270619
116	0xbde7c941	-0.11317683
117	0x3c93ac13	0.018026387
118	0xbd816f31	-0.06320036
119	0x3dcc36d4	0.09971395
120	0xbda54a30	-0.08070791
121	0xbdce7e24	-0.10082653
122	0xbdd847ef	-0.10560595
123	0x3c6b983e	0.014379559
124	0xbc9b13fa	-0.018930424
125	0xbd4c9edb	-0.049956184
126	0x3ce37d7f	0.027769802
127	0x3d143e36	0.03619214

fc2.weight f4 [64, 128]
0	0xbdab87ab	-0.08375486
1	0x3b6d3b08	0.0036198515
2	0x3b94ec14	0.0045447443
3	0xbe0c59da	-0.1370615
4	0x3d23ad9b	0.039960485
5	0xbe04d721	-0.1297269
6	0xbe42ab6b	-0.19010703
7	0xbd1dfca8	-0.03857103
8	0x3d9afd23	0.07567813
9	0x3ca3ed8c	0.020010732
10	0x3d594acf	0.05304986
11	0x3cacf7d8	0.021114275
12	0xbd98ad80	-0.074549675
13	0x3ce00101	0.027344229
14	0x3d1bf1d5	0.038072426
15	0x3cdaeece	0.0267252
16	0x3d218cdc	0.039440975
17	0x3de5cd37	0.11220782
18	0xbcfb4441	-0.030672194
19	0xbe52aa8b	-0.2057287
20	0x3d04be20	0.03240788
21	0xbc2f7962	-0.010710092
22	0x3d6078d0	0.054802716
23	0x3d545904	0.051842704
24	0xbd453b5b	-0.04815231
25	0x3d8a0eff	0.067411415
26	0x3cf457b3	0.029826974
27	0x3df9e7e6	0.12202434
28	0x3d801df1	0.06255711
29	0xbdba6d41	-0.0910287
30	0x3d4a2b23	0.049357545
31	0xbdcff8f6	-0.101549074
32	0xbde2fa0c	-0.11082849
33	0xbbb4f6de	-0.005522593
34	0xbdfee854	-0.12446657
35	0xbcaedda7	-0.021345926
36	0x3d4af3b3	0.049548816
37	0xbca5f459	-0.020258116
38	0xbd815fa6	-0.063170716
39	0x3dd58c5d	0.10427163
40	0x3a80646d	0.0009795554
41	0xbda6a72b	-0.081373535
42	0x3db2e458	0.08734959
43	0x3dcad743	0.09904339
44	0x3d75ca6d	0.0600075
45	0xbd07186f	-0.032982286
46	0xbd1b50eb	-0.037918966
47	0x3bb8f9de	0.005645021
48	0xbd780c90	-0.060558856
49	0xbda1d1a0	-0.07901311
50	0xbd77e6fb	-0.060523015
51	0x3d11b195	0.035569746
52	0xbdbf91db	-0.093539916
53	0xbe094351	-0.13404585
54	0xbb328f10	-0.0027245916
55	0xbda742fc	-0.08167073
56	0xbbdcc718	-0.006737601
57	0xbddeebcf	-0.10884821
58	0x3cfad8f8	0.030621037
59	0x3e534c70	0.20634627
60	0x3bda0717	0.006653677
61	0x3d373d7e	0.044736378
62	0xbdd1f5fa	-0.102519944
63	0x3aaa1b8b	0.0012978179
64	0xbce16f15	-0.027518788
65	0xbe1e363c	-0.15450376
66	0x3e71ba08	0.23606122
67	0xbc4a0078	-0.012329213
68	0x3db9df1e	0.09075759
69	0xbd6d4052	-0.05792267
70	0xbceb8e2d	-0.028754318
71	0x3bd169a3	0.0063907667
72	0xbd3e0cb0	-0.04639882
73	0x3d94a654	0.07258287
74	0x3d3c9888	0.046043903
75	0xbd645052	-0.055740662
76	0x3d9a7f50	0.07543814
77	0xbdae022a	-0.084965065
78	0x3e53b972	0.2067621
79	0xbd4da79d	-0.050208677
80	0xbd9a244f	-0.075264566
81	0xbd8ce150	-0.068789124
82	0xbe24236b	-0.16029136
83	0x3dc3ffcc	0.09570274
84	0x3d0d374d	0.034476567
85	0x3d8c5469	0.068520375
86	0x3e1687c4	0.14700228
87	0xbd085b73	-0.033290338
88	0x3d47e496	0.04880198
89	0x3d8a2002	0.06744386
90	0x3d3c9674	0.04604192
91	0xbc8c6964	-0.017140098
92	0xbd80a88a	-0.06282146
93	0xbdcbc771	-0.0995015
94	0xbdb08dff	-0.086208336
95	0x3da9cfb6	0.08291571
96	0x3d882a5c	0.066487044
97	0xbdc0cb93	-0.09413829
98	0x3bc7c9e2	0.0060970644
99	0x3da6ee63	0.081509374
100	0x3d188e02	0.037244804
101	0xbbdbd65e	-0.006708904
102	0x3c9d04e3	0.01916737
103	0xbd1c2f77	-0.038131204
104	0x3d3533c6	0.044238828
105	0x3c07940d	0.008275044
106	0x3d23da48	0.04000309
107	0xbdae2d68	-0.08504754
108	0xbd4c65ca	-0.04990176
109	0x3cc94956	0.024571102
110	0xbd9335c3	-0.071879886
111	0xbdfce56b	-0.123484455
112	0x3d98fe20	0.074703455
113	0xbae75dd1	-0.0017651861
114	0xbda0feeb	-0.07861122
115	0xbe45ea91	-0.19327761
116	0x3b38d3e6	0.0028202473
117	0xbd207ea3	-0.03918327
118	0xbd8cf465	-0.06882552
119	0x3cecee4f	0.028922228
120	0xbd7ced1a	-0.061749555
121	0xbcb5e189	-0.02220227
122	0xbda58107	-0.08081251
123	0xbcfc5663	-0.030802911
124	0x3c854a85	0.016270885
125	0xbdd13bd2	-0.10216488
126	0x3b42b6ba	0.0029710964
127	0xbd905de0	-0.07049155
128	0xbe04b029	-0.12957825
129	0xbdacc5a5	-0.08436135
130	0xbb86c611	-0.004112967
131	0x3db49425	0.08817319
132	0x3a946b47	0.0011323475
133	0xbdcede39	-0.10100979
134	0x3ce7f666	0.028315734
135	0xbd3e95f9	-0.046529744
136	0xbd4ce581	-0.05002356
137	0xbc90556b	-0.017618855
138	0x3dba4c8c	0.090966314
139	0xbd8fced4	-0.07021871
140	0xbcaf49fd	-0.021397585
141	0x3d8626eb	0.06550392
142	0x3d425944	0.04744841
143	0xbd141a2f	-0.036157783
144	0xbd59e23a	-0.053194262
145	0x3e02ab34	0.12760621
146	0x3ca0de77	0.01963733
147	0xbe5dceea	-0.21660963
148	0x3ba3f0de	0.005003079
149	0xbd375037	-0.044754233
150	0xbc369160	-0.011143059
151	0x3e29b34f	0.16572307
152	0xbd9f6673	-0.077832125
153	0xbbcc4cba	-0.0062347325
154	0x3d8745cc	0.066051096
155	0x3cf89da8	0.030348614
156	0xbc746b53	-0.014918166
157	0xbddf7b86	-0.10912232
158	0xbcaf9506	-0.021433365
159	0xbe2b3e02	-0.16722873
160	0x3e1d9e3e	0.15392396
161	0xbcf56d1d	-0.029959256
162	0xbddd7c53	-0.108147286
163	0x3d8355e0	0.06412864
164	0x3c5680d9	0.013092243
165	0xbda59680	-0.08085346
166	0xbc9234b8	-0.017847404
167	0x3e034f5e	0.12823245
168	0x3dae0ed6	0.084989235
169	0xbcdb4458	-0.026765987
170	0xbd9b7a86	-0.07591729
171	0xbdf76931	-0.120806105
172	0x3c9f0649	0.019412177
173	0xbb43c644	-0.0029872814
174	0x3da174d7	0.078836136
175	0xbcbe458b	-0.02322652
176	0xbd61b172	-0.055100866
177	0x3b16380c	0.002292159
178	0x3da911dd	0.0825536
179	0xbdf48505	-0.11939434
180	0x3db07e62	0.086178556
181	0x3c7745c6	0.015092319
182	0xbca36ba4	-0.019948788
183	0xbd8da4ad	-0.06916175
184	0x3bd2bbe0	0.006431088
185	0x3d1807cd	0.037116814
186	0xbd53d18e	-0.05171352
187	0x3e4fbb15	0.2028621
188	0x3d92463f	0.07142305
189	0xbda977ee	-0.08274828
190	0x3db99193	0.09060969
191	0xbd0e709a	-0.034775354
192	0xbd9f8c2c	-0.077904075
193	0xbdd7d5fe	-0.10538863
194	0x3df04de6	0.11733608
195	0x3d29cf95	0.04145773
196	0xbc85b156	-0.016319912
197	0xbdaf7cee	-0.0856875
198	0xbb93c1ca	-0.0045091854
199	0xbd4c194d	-0.049828816
200	0xbd054e73	-0.032545518
201	0x3d698bed	0.05701821
202	0xbd6116c7	-0.054953363
203	0x3d770013	0.060302805
204	0x3d4034bb	0.046925288
205	0x3dad7707	0.08469968
206	0x3ef2571b	0.4733208
207	0xbc23eafb	-0.010004754
208	0xbc7ae527	-0.015313423
209	0x3d9d0aee	0.076681
210	0x3c7186fb	0.0147416545
211	0x3e561e95	0.20910104
212	0x3c995670	0.018717974
213	0x3dff282c	0.12458834
214	0x3e167373	0.14692478
215	0x3d03e9a7	0.03220525
216	0x3ced19c7	0.028942956
217	0x3db2880d	0.08717356
218	0xbd301044	-0.042984262
219	0xbd320a8b	-0.043467086
220	0x3d490a62	0.049082167
221	0xbdac8e1a	-0.08425541
222	0xbb039c08	-0.0020082016
223	0x3d681fcb	0.056670945
224	0x3d9eb321	0.0774901
225	0xbd67badf	-0.0565747
226	0x3d4a24fd	0.04935168
227	0x3cc8a218	0.024491355
228	0xbd3b4707	-0.045722034
229	0x3d8edd44	0.06975797
230	0x3c8b63f5	0.017015437
231	0x3d9b1b1e	0.075735316
232	0xbd19597a	-0.037438847
233	0xbd32cab7	-0.043650355
234	0xbd765d52	-0.06014759
235	0xbd0ced51	-0.03440601
236	0x3cd8128b	0.02637603
237	0xbd427501	-0.047474865
238	0xbd91e932	-0.071245566
239	0xbc2cd7be	-0.010549484
240	0x3defa829	0.11701996
241	0x3d0d3999	0.034478758
242	0xbddfa3b1	-0.109198935
243	0xbd23f68a	-0.04003004
244	0x3d39de29	0.045377884
245	0xbdab9d1f	-0.08379578
246	0x3d033c11	0.032039706
247	0x3c889b9f	0.016675768
248	0x3c6adf33	0.014335441
249	0xbda796b5	-0.08183042
250	0xbdbb8dfb	-0.0915794
251	0x3d2ca4f0	0.042149484
252	0xbcce185b	-0.025158098
253	0xbd59fb15	-0.053217966
254	0xbe284526	-0.16432628
255	0xbcbc99e7	-0.023022605

fc2.bias f4 [64]
0	0x3e3ea985	0.18619354
1	0x3e770974	0.241247
2	0xbe343fef	-0.17602514
3	0x3d56377a	0.052299
4	0x3e4d0c49	0.20024218
5	0x3e041505	0.12898643
6	0xbdfd449f	-0.12366604
7	0xbe7042dc	-0.23463005
8	0xbda58557	-0.08082073
9	0x3d175b3c	0.036952242
10	0x3dcb63af	0.099311225
11	0xbc6d60bd	-0.014488396
12	0x3e38e9af	0.18057893
13	0x3d53af97	0.051681127
14	0xbcbab6b6	-0.022792201
15	0xbd93dbc8	-0.07219654
16	0x3e70d37c	0.23518175
17	0xbdfaa25a	-0.12237997
18	0xbe2de45d	-0.16981645
19	0xbe23ac2d	-0.15983649
20	0xba9d4f48	-0.0012001777
21	0x3de7f3d0	0.113258004
22	0xbdaf0523	-0.085459016
23	0xbe2028b7	-0.15640531
24	0x3df9c736	0.121961996
25	0xbe61e10a	-0.22058502
26	0xbdea4103	-0.11438181
27	0xbe02de8f	-0.12780212
28	0xbd8ffaa7	-0.0703023
29	0x3c0c099f	0.008547216
30	0x3e9102dd	0.28322497
31	0xbbe22e85	-0.006902518
32	0x3dcb1a2a	0.099171
33	0x3de6faf7	0.112783365
34	0xbe465c04	-0.19371039
35	0xbd3f5a6b	-0.04671709
36	0xbd72219e	-0.05911409
37	0xbd89ef11	-0.067350514
38	0x3ea138c0	0.3148861
39	0xbddd779f	-0.108138315
40	0xbda6a4eb	-0.08136924
41	0x3e96d4d7	0.2945926
42	0xbdee0e45	-0.116238154
43	0x3e09c803	0.13455205
44	0xbd6ad63e	-0.057333224
45	0x3e23a49d	0.15980764
46	0x3df5e98a	0.12007435
47	0xbd656b96	-0.056010805
48	0xbcfa68ea	-0.030567605
49	0xbe04e194	-0.12976676
50	0x3d38514c	0.044999406
51	0xbd07b70f	-0.033133563
52	0xbcf9872d	-0.030459965
53	0x3d55d0e0	0.05220115
54	0xbdf0beb8	-0.11755127
55	0xbc96718a	-0.018364687
56	0xbe59ede1	-0.2128215
57	0xbd7153a6	-0.058917664
58	0xbd6d8a3c	-0.05799316
59	0x3e4d7ef2	0.20067957
60	0xbd080a2f	-0.033212837
61	0xbc1406c8	-0.00903482
62	0x3e3334b4	0.17500573
63	0xbe4075a6	-0.1879488

fc3.weight f4 [1, 64]
0	0xbc981361	-0.018563928
1	0xbd0f890a	-0.0350428
2	0x3d298385	0.041385192
3	0xbd630a57	-0.055429783
4	0xbd39779d	-0.045280088
5	0xbd4a4af1	-0.049387876
6	0x3d0fe5dd	0.035131324
7	0x3c321e17	0.010871432
8	0xbd4740a3	-0.048645627
9	0x3c2f6731	0.010705755
10	0xbdac6ed3	-0.084195755
11	0x3cc3abd0	0.023885638
12	0xbd137842	-0.03600336
13	0x3ce787a7	0.028262926
14	0xbc297de7	-0.010344959
15	0x3d11d651	0.03560478
16	0xbd329379	-0.043597672
17	0x3db322d4	0.08746877
18	0xbb3477c0	-0.0027537197
19	0x3bdfdaae	0.0068314886
20	0xbdc71b1d	-0.09721968
21	0xbcb16bca	-0.021657843
22	0x3d1b78e7	0.0379571
23	0x3b641d1f	0.0034807397
24	0xbc91ed8b	-0.017813465
25	0x3ca13b1b	0.019681504
26	0xbab6089c	-0.0013888064
27	0x3c38e616	0.0112853255
28	0xbca9130a	-0.020638961
29	0x3d30bf5e	0.043151252
30	0xbcc95b0b	-0.024579545
31	0x3c18b190	0.009319678
32	0xbda48069	-0.08032305
33	0xbce81f3d	-0.028335208
34	0x3b0aba93	0.0021168336
35	0xbe341df0	-0.17589545
36	0xbcb5a96c	-0.022175513
37	0x3bb4302e	0.0054989075
38	0xbd4ea00d	-0.050445605
39	0x3d4020a6	0.046906136
40	0x3d1d4994	0.038400248
41	0xbc8a86c5	-0.016909966
42	0x3c033743	0.008008781
43	0xbd2c8291	-0.042116705
44	0x3b551595	0.0032514085
45	0xbd8a6e3a	-0.06759305
46	0x3c922e62	0.017844383
47	0x3c74e150	0.014946297
48	0xbb9a7b0a	-0.0047143744
49	0x3cdb0947	0.026737822
50	0xbc694ca0	-0.01423946
51	0x3d515d02	0.05111409
52	0x3bce808a	0.006301944
53	0x3d2baa80	0.04191065
54	0x3cd904df	0.02649158
55	0x3baf922b	0.0053580008
56	0x3c98bc8f	0.0186446
57	0x3c03fe8e	0.008056296
58	0x3baa602a	0.005199452
59	0xbd3bc2bc	-0.04584001
60	0x3c7cccf6	0.015429726
61	0xbb9a7a92	-0.0047143186
62	0xbd84509a	-0.06460686
63	0x3d3b5807	0.045738246
