OnlineJudge/ai/dl_models/cnn/recommendation_model.pth (torch, 111011 bytes, 9 tensors)

user_embedding.weight f4 [64, 20]
0	0xbe28d063	-0.16485743
1	0xbdf7e20f	-0.12103664
2	0x3e0b5830	0.1360786
3	0xbe590313	-0.21192579
4	0x3e323536	0.17403111
5	0xbe56ee3b	-0.20989315
6	0xbce26612	-0.027636562
7	0x3d9c1a4a	0.07622202
8	0x3e52ee4a	0.20598713
9	0xbe37561c	-0.17903942
10	0x3d33654a	0.04379777
11	0xbdf5f589	-0.12009723
12	0xbe0864b0	-0.13319659
13	0xba54a5d4	-0.00081118685
14	0x3e571159	0.21002711
15	0x3dd15d89	0.102229185
16	0x3e620bb8	0.22074783
17	0x3df58227	0.11987715
18	0x3dd432b4	0.10361233
19	0x3d760eb4	0.060072616
20	0x3cb939e9	0.022610622
21	0xbe6c1fb2	-0.23058966
22	0x3cadf41a	0.02123456
23	0xbe3d3dc8	-0.18480599
24	0x3d30de81	0.043180946
25	0xbe596f30	-0.21233821
26	0x3cf6672d	0.030078495
27	0x3dcf8c8f	0.10134231
28	0xbe3de5a4	-0.18544632
29	0xbe1fa6cb	-0.1559097
30	0xbb6c941a	-0.0036099018
31	0xbd1c3695	-0.03813799
32	0x3d853934	0.06505051
33	0x3cc8e756	0.024524372
34	0x3da6aefd	0.08138845
35	0xbe506e59	-0.20354594
36	0x3ddd1cf5	0.10796539
37	0xbe180a59	-0.14847697
38	0x3bbe05fc	0.0057990532
39	0xbe240b02	-0.16019824
40	0xbe40c479	-0.18824948
41	0xbe29119c	-0.16510624
42	0xbd4f7b32	-0.050654598
43	0xbe55cf56	-0.20879874
44	0xbe49321d	-0.19648023
45	0x3dde28fe	0.108476624
46	0x3e1c7b6a	0.15281454
47	0xbd0e3ebb	-0.034727793
48	0xbc78c2b2	-0.015183138
49	0x3e3ee133	0.18640594
50	0x3e469080	0.1939106
51	0x3e5ec603	0.21755223
52	0xbe6a4559	-0.22878017
53	0x3e2136d1	0.15743567
54	0x3e3fd32c	0.187329
55	0x3c16ea1c	0.009211089
56	0xbd648411	-0.05579001
57	0x3d8c06a1	0.06837202
58	0x3c17263b	0.009225423
59	0xbc79774a	-0.015226195
60	0xbe20eb92	-0.15714863
61	0x3d1539e2	0.036432154
62	0xbd6be951	-0.057595555
63	0x3ecc012f	0.39844653
64	0xbea8aec2	-0.3294583
65	0x3e0d816b	0.138189
66	0x3e92f7f2	0.28704792
67	0x3db1bfc2	0.08679153
68	0x3d862026	0.065491006
69	0x3e097bd8	0.13426149
70	0xbec4a271	-0.38405183
71	0xbe60b29b	-0.21943133
72	0xbdfba2f3	-0.122869395
73	0x3d9a3a5e	0.07530664
74	0x3de09892	0.109666005
75	0xbecba10a	-0.397713
76	0xbd7cc27f	-0.061708923
77	0x3e621faa	0.22082391
78	0xbe1e3182	-0.15448573
79	0x3f0748e5	0.52845603
80	0xbe552773	-0.2081583
81	0x3e43e758	0.1913122
82	0xbe114868	-0.14187777
83	0xbdc1a229	-0.09454758
84	0xbe6343e7	-0.22193871
85	0xbce46c15	-0.027883569
86	0x3d934299	0.07190437
87	0xbd65165c	-0.055929527
88	0xbd92bb4d	-0.07164631
89	0xbd63878f	-0.0555492
90	0x3e3d4db0	0.18486667
91	0x3e4d0a18	0.20023382
92	0xbce7717c	-0.028252356
93	0xbdd7e90e	-0.105424985
94	0xbe4f0887	-0.20218097
95	0xbe02ffa2	-0.12792829
96	0xbd7f8e35	-0.06239148
97	0x3d685660	0.056723
98	0xbd51b4d5	-0.051197845
99	0x3ae4b9ad	0.0017450355
100	0x3de4536d	0.11148725
101	0x3e8c0008	0.27343774
102	0x3e0d579d	0.13802953
103	0xbe40179a	-0.18759003
104	0x3e09329b	0.1339821
105	0xbde7018a	-0.112795904
106	0x3b5d1ff0	0.003374096
107	0xbdbe7ed4	-0.09301534
108	0xbcb52fce	-0.022117522
109	0x3b7c5daf	0.0038507988
110	0xbe016f63	-0.12640147
111	0x3e7cef48	0.24700654
112	0xbe36eb06	-0.17863092
113	0xbd0fcc83	-0.035107147
114	0xbe19f6e4	-0.15035588
115	0x3e85da3a	0.26143056
116	0x3e5139b9	0.20432176
117	0x3cd8fae4	0.026486821
118	0xbb090e32	-0.0020913002
119	0xbd225716	-0.039633833
120	0x3db0911f	0.0862143
121	0xbcd25817	-0.02567677
122	0xbe66e7e8	-0.22549403
123	0xbeaf4b91	-0.3423734
124	0x3e5c6e65	0.21526487
125	0xbc83bff4	-0.016082741
126	0xbe02af83	-0.12762265
127	0xbd8bb5a1	-0.06821752
128	0xbd7dd393	-0.06196935
129	0xbe76db85	-0.24107178
130	0xbe09b6c2	-0.13448623
131	0x3e1bd85a	0.1521925
132	0x3defe5b6	0.11713736
133	0xbe45944b	-0.1929485
134	0xbd92d0bf	-0.071687214
135	0x3d9972a7	0.07492571
136	0xbd9cf5eb	-0.07664093
137	0x3daf2da4	0.08553627
138	0x3d7ebf44	0.062194124
139	0xbdde19ba	-0.10844751
140	0xbdc9c67b	-0.0985231
141	0xbd5f4745	-0.054511327
142	0x3e825844	0.25457966
143	0x3e922cf3	0.2854992
144	0xbf3e11a4	-0.7424567
145	0x3e3b537a	0.18293563
146	0xbd30a105	-0.04312231
147	0xbdb6d022	-0.08926417
148	0x3c5e69e7	0.013575054
149	0x3e809906	0.25116748
150	0xbe6fbb9b	-0.2341141
151	0xbd84bf63	-0.064818166
152	0x3e63039c	0.22169346
153	0xbc37746d	-0.011197192
154	0x3e1b46a0	0.1516366
155	0xbf329ded	-0.69772226
156	0x3d2b70a6	0.041855477
157	0xbe076103	-0.13220601
158	0xbf036722	-0.51329243
159	0x3f0efe1d	0.55856496
160	0x3deaf0c0	0.11471701
161	0xbe800c8a	-0.25009567
162	0x3e097b91	0.13426043
163	0xbe82c134	-0.25538027
164	0xbdebf398	-0.11521071
165	0xbe16180e	-0.14657614
166	0xbe756531	-0.23964383
167	0xbe8e855a	-0.27836114
168	0xbd594056	-0.05303987
169	0xbe936a2b	-0.28791937
170	0xbe6041db	-0.21900122
171	0xbc7121cc	-0.01471753
172	0xbdad4de5	-0.08462123
173	0x3d1bddd1	0.038053337
174	0x3dfce0a1	0.12347532
175	0xbda4f1fb	-0.080539666
176	0x3e1061c2	0.14099792
177	0x3e4b4454	0.19850284
178	0xbdc8c0d8	-0.09802407
179	0xbe0100ff	-0.12598036
180	0xbda8c0de	-0.082399115
181	0xbe0d29fd	-0.13785549
182	0xbe52765c	-0.20552963
183	0x3c31034e	0.010804011
184	0x3e39a146	0.18127927
185	0x3b8961c5	0.0041925632
186	0x3e38111e	0.1797528
187	0x3e321da0	0.17394114
188	0xbe114eb8	-0.14190185
189	0x3e443527	0.19160901
190	0xbe6c1f11	-0.23058726
191	0xbde5a899	-0.11213798
192	0x3ddb80e0	0.1071794
193	0xbe3acebe	-0.18242928
194	0xbe111f92	-0.141722
195	0xbdf7021d	-0.1206095
196	0xbe5123dc	-0.20423836
197	0xbd60a559	-0.054845188
198	0x3d95f95f	0.073229544
199	0xbdbc11ad	-0.09183059
200	0xbdacb730	-0.08433378
201	0x3e07ec57	0.1327375
202	0xbcdc9b6f	-0.026929585
203	0xbe372b33	-0.17887573
204	0x3d8ca5ba	0.06867547
205	0x3b308191	0.0026932696
206	0x3dd5e8e6	0.104448125
207	0xbc6c70fc	-0.014431234
208	0x3e2624a1	0.1622491
209	0x3e038092	0.12842014
210	0x3e582e2c	0.21111363
211	0x3e1d456a	0.1535851
212	0xbe15575c	-0.14584106
213	0xbe415946	-0.18881711
214	0xbe64e4ce	-0.22352907
215	0xbdc3e10f	-0.09564411
216	0xbe1905f1	-0.14943673
217	0x3d8ae3c2	0.067817226
218	0x3e05ec8c	0.13078517
219	0x3e25f610	0.16207147
220	0xbdfb1c73	-0.12261286
221	0x3c81013f	0.015747664
222	0xbdb69ce1	-0.08916641
223	0xbdef80b8	-0.11694473
224	0x3e3d0c44	0.1846171
225	0xbddf56ea	-0.109052494
226	0xbe2a2c29	-0.16618408
227	0xbdada4b6	-0.08478682
228	0xbe2eaff7	-0.17059313
229	0xbd7a9117	-0.061173525
230	0xbd518dc9	-0.051160607
231	0x3eb24fbf	0.34826466
232	0xbe76d897	-0.2410606
233	0x3e1e3af6	0.1545218
234	0x3d82c682	0.063855186
235	0x3e42e19d	0.19031377
236	0x3e03e9ce	0.12882158
237	0xbba99221	-0.0051748906
238	0x3e562d62	0.2091575
239	0xbe13c471	-0.14430405
240	0x3dc75a37	0.09734004
241	0xbdc1fb3f	-0.094717495
242	0x3d8b3f07	0.06799131
243	0x3ef92032	0.48657376
244	0xbf579839	-0.8421665
245	0xbe1c28a0	-0.15249872
246	0x3d94e010	0.07269299
247	0x3cfe8e1d	0.031073624
248	0xbdf0ca54	-0.11757341
249	0xbe043032	-0.1290901
250	0xbe1c0bce	-0.15238878
251	0xbea761c8	-0.3269179
252	0x3dddb6f6	0.10825913
253	0xbcba1a08	-0.02271749
254	0x3e1bb905	0.15207298
255	0xbef34bac	-0.4751867

user_embedding.bias f4 [64]
0	0xbe479708	-0.19491208
1	0xbd0717b6	-0.032981597
2	0x3df597da	0.11991854
3	0x3e615bce	0.22007677
4	0xbe509331	-0.20368649
5	0x3ddac321	0.10681749
6	0xbdb5b8bf	-0.08873128
7	0xbce4c8cd	-0.02792778
8	0x3df96074	0.121766
9	0x3ddb5bf0	0.10710895
10	0x3e1c4275	0.15259726
11	0x3d025099	0.031815145
12	0xbdaffcfb	-0.08593174
13	0xbe270124	-0.16309029
14	0x3bb98a22	0.0056622187
15	0xbe0c9846	-0.13729963
16	0x3ddf7944	0.109118015
17	0x3dce8386	0.1008368
18	0xbe22dbff	-0.15904234
19	0xbdc6194a	-0.09672792
20	0x3e194d53	0.14970903
21	0x3db5918b	0.08865651
22	0xbe280698	-0.16408765
23	0x3c52b1d4	0.01285978
24	0x3e3dd318	0.18537557
25	0x3b900d3c	0.004396109
26	0xbd09edd0	-0.03367406
27	0xbe68bce1	-0.22728302
28	0x3e3b1ddc	0.18273109
29	0x3e8ab9e5	0.2709495
30	0x3e18e39d	0.14930578
31	0x3d2d2f46	0.04228141
32	0xbdb7e52c	-0.08979258
33	0xbd07c95a	-0.03315101
34	0xbe077f11	-0.13232066
35	0xbd6878a3	-0.056755673
36	0x3e793623	0.24337058
37	0x3db80fb9	0.08987374
38	0x3e3c2e51	0.18377043
39	0xbbabc07a	-0.005241451
40	0xbe4f4c5b	-0.20243971
41	0xbd8d6815	-0.06904618
42	0xbe56750d	-0.20943089
43	0x3e3d6c96	0.18498453
44	0xbda6ab91	-0.081381924
45	0xbc075ede	-0.008262364
46	0xbda60ec8	-0.08108288
47	0x3cc80620	0.024416983
48	0x3ba7da78	0.005122479
49	0xbe69c029	-0.2282721
50	0xbd6d1fbe	-0.0578916
51	0xbd1c4087	-0.038147476
52	0x3d7f8a5c	0.06238781
53	0xbe4c96cf	-0.19979404
54	0x3db2f874	0.08738795
55	0x3dcb9741	0.09940959
56	0xbe3ccdf7	-0.18437944
57	0x3e317682	0.17330363
58	0xbe4e9bcf	-0.20176624
59	0x3d390adb	0.04517637
60	0xbca24915	-0.019810239
61	0xbe7e152e	-0.24812767
62	0xbe30b818	-0.17257726
63	0xbe4504d9	-0.1924013

problem_embedding.weight f4 [64, 10]
0	0xbeb17004	-0.34655774
1	0x3e46ef60	0.19427252
2	0x3d59eaf7	0.053202596
3	0xbe658f4f	-0.22417949
4	0xbdad4b44	-0.084616214
5	0x3d36f654	0.04466851
6	0xbee6a543	-0.4504796
7	0x3d18f749	0.037345205
8	0xbe13227f	-0.14368628
9	0xbef799a7	-0.48359415
10	0xbe147d99	-0.14501037
11	0xbf049759	-0.5179344
12	0x3e7b8876	0.24563774
13	0xbdab0643	-0.08350804
14	0x3e137312	0.14399365
15	0xbeb9cc98	-0.36288905
16	0xbec4261c	-0.38310325
17	0x3d8daebc	0.069180936
18	0x3de57f90	0.11205971
19	0xbd617c6f	-0.05505031
20	0x3ac86455	0.001528869
21	0x3e8f40e4	0.27979195
22	0x3e9429ea	0.28938228
23	0xbecce321	-0.40017036
24	0xbe7a5d74	-0.24449712
25	0xba219338	-0.00061636
26	0xbe81ec20	-0.25375462
27	0x3d032589	0.03201822
28	0x3c9ef4c8	0.01940383
29	0xbe9c71be	-0.30555528
30	0xbe7a62e4	-0.24451786
31	0xbef7897f	-0.4834709
32	0xbd81103f	-0.06301927
33	0x3d437a34	0.047723964
34	0x3daa40a4	0.083131105
35	0xbef3e0b3	-0.4763237
36	0xbec4497e	-0.3833732
37	0x3df770a6	0.12082033
38	0xbec63c54	-0.38717902
39	0xbe424941	-0.18973257
40	0x3db79c50	0.08965361
41	0x3ea48c93	0.321385
42	0x3e4acbe5	0.19804342
43	0xbe2f1e58	-0.17101419
44	0x3ee14c48	0.4400351
45	0xbdfc7a36	-0.123279974
46	0x3e8ad00f	0.2711186
47	0xbe75da8a	-0.24009147
48	0x3edb7cb8	0.4286859
49	0x3d3f994e	0.046777062
50	0xbe57519e	-0.21027228
51	0x3ef6a3c2	0.48171812
52	0xbdfc68d6	-0.12324683
53	0xbf396d9a	-0.72432864
54	0xbd05be77	-0.032652345
55	0xbcc4c8f5	-0.024021605
56	0x3e870e02	0.26377875
57	0xbbb0d739	-0.0053967503
58	0xbd720376	-0.05908533
59	0xbdf5ecb3	-0.120080374
60	0xbe16a769	-0.147123
61	0xbd6583da	-0.056033947
62	0x3df1aecb	0.11800917
63	0xbf5d4446	-0.864323
64	0x3caad8c9	0.020855324
65	0x3d19685d	0.037453044
66	0x3dfe9dca	0.124324396
67	0xbd27b9ce	-0.04094868
68	0xbd5788b0	-0.05262059
69	0xbd7eac58	-0.06217608
70	0x3f00e5e6	0.503508
71	0xbf208bca	-0.627133
72	0x3b80cf48	0.00393096
73	0x3db11602	0.08646776
74	0xbe248938	-0.1606797
75	0xbf22e6a3	-0.63633174
76	0xbdf40744	-0.11915448
77	0x3e16225f	0.14661549
78	0xbd19ffd2	-0.037597485
79	0x3e1bbf1f	0.15209626
80	0x3eba522f	0.36390826
81	0xbde9a29e	-0.1140797
82	0xbd59afa2	-0.053146012
83	0x3e792e80	0.24334145
84	0xbe83e810	-0.25762987
85	0x3e89749c	0.26846778
86	0xbed6dbd4	-0.4196459
87	0xbd5dc2db	-0.054140907
88	0xba21d381	-0.0006173179
89	0xbec539fa	-0.38520795
90	0xbe3c9dfc	-0.18419641
91	0xbe65ba54	-0.2243436
92	0x3d34b74b	0.044120114
93	0xbeca5603	-0.39518747
94	0xbe920268	-0.2851746
95	0x3c87c765	0.01657457
96	0x3d81ef42	0.06344463
97	0xbea70c08	-0.32626367
98	0x3d614321	0.05499566
99	0xbeb1e4c8	-0.3474486
100	0xbd058218	-0.03259477
101	0xbdeb80d8	-0.11499184
102	0x3e385b80	0.18003654
103	0x3e87b743	0.26507005
104	0x3c2b9d0d	0.010474456
105	0xbe91b2e6	-0.284568
106	0x3e3cd5cc	0.18440932
107	0xbe4549bf	-0.19266413
108	0x3e5177f5	0.20455916
109	0xbe1adae5	-0.15122564
110	0x3e14373e	0.14474198
111	0x3e04911c	0.1294598
112	0x3e9b8cfb	0.30380997
113	0xbf19c4f2	-0.6006614
114	0xbd9d9a9b	-0.07695504
115	0x3d822436	0.06354563
116	0x3e940fa0	0.2891817
117	0xbd82cb42	-0.063864246
118	0xbdd6c46f	-0.104866855
119	0xbe2db017	-0.16961704
120	0xbe288749	-0.16457857
121	0x3d03adc5	0.03214814
122	0x3e547eb0	0.20751452
123	0xbf6d7f95	-0.927728
124	0x3e8a6add	0.27034655
125	0xbd1d7b87	-0.038447883
126	0x3eb50811	0.35357717
127	0xbd568e4c	-0.0523818
128	0x3b4dc4db	0.0031397853
129	0x3e4535db	0.19258825
130	0xbee09db4	-0.43870318
131	0x3e6137ff	0.21994017
132	0x3e4297e0	0.19003248
133	0xbea3a990	-0.31965303
134	0xbd8ce718	-0.06880015
135	0x3d21d031	0.039505187
136	0xbe99e793	-0.3005949
137	0x3d155b12	0.036463805
138	0xbe22d6b5	-0.15902217
139	0xbd5e78ec	-0.05431454
140	0xbee1d968	-0.4411118
141	0xbbe8748a	-0.0070939707
142	0x3d240209	0.040041003
143	0xbf65253f	-0.8950996
144	0x3e00c532	0.12575224
145	0x3da87f67	0.08227425
146	0xbe0c93be	-0.13728234
147	0xbab6727b	-0.0013919616
148	0x3b138667	0.002251053
149	0xbe028c75	-0.12748893
150	0xbe85395e	-0.2602033
151	0x3edafb82	0.4277001
152	0x3e1b38a6	0.15158328
153	0xbf4cc161	-0.7998257
154	0xbd044b35	-0.032298286
155	0xbce80716	-0.028323691
156	0x3ee693ad	0.45034543
157	0xbc292ad4	-0.010325152
158	0xbd1b68f6	-0.037941895
159	0x3e7f4a1a	0.24930611
160	0xbe8eb8cc	-0.27875364
161	0xbe5d4e12	-0.21611813
162	0x3e1eb1e4	0.15497547
163	0xbd7e703d	-0.062118758
164	0x3d43825b	0.04773174
165	0xbdfe6d3c	-0.124231786
166	0xbe3b608f	-0.18298553
167	0xbe136a11	-0.1439593
168	0x3d90be76	0.070675775
169	0xbdf24eb9	-0.118314214
170	0xbdc84b25	-0.09779958
171	0xbdf6eade	-0.12056516
172	0xbe3a00a8	-0.18164313
173	0x3e616786	0.22012147
174	0xbe62a88e	-0.22134611
175	0xbc49ae31	-0.012309597
176	0x3e95a0b7	0.29224178
177	0xbe6ae55c	-0.22939056
178	0xbe7d6ee1	-0.24749328
179	0xbe9333fd	-0.287506
180	0xbf1c85a8	-0.61141443
181	0x3edf2c79	0.43588617
182	0xbe252045	-0.16125591
183	0xbf866a28	-1.0501146
184	0x3ed26513	0.41092739
185	0xbce1025a	-0.027466942
186	0x3e8b43eb	0.27200255
187	0x3c88cd66	0.016699504
188	0xbd6a42fb	-0.057192784
189	0x3e8e83a4	0.2783481
190	0x3ddfd4fc	0.109292954
191	0xbe916adf	-0.2840185
192	0xbcf2e795	-0.029651443
193	0xbe0d4081	-0.13794138
194	0xbe09418e	-0.13403913
195	0x3d242161	0.040070895
196	0x3d67587e	0.056480877
197	0xbe8ad7c8	-0.27117753
198	0xbe1e42e4	-0.15455204
199	0xbe911d0c	-0.28342474
200	0xbed13f65	-0.4086868
201	0xbd9629f2	-0.07332219
202	0x3dc246fa	0.09486194
203	0xbf9256a0	-1.1432686
204	0xbe819f1f	-0.25316712
205	0xbdbe33be	-0.09287213
206	0xbe6c398b	-0.23068826
207	0x3dfc91b4	0.12332478
208	0xbeaa828e	-0.3330273
209	0x3ca7115c	0.02039402
210	0x3e804ba2	0.25057703
211	0x3d8e76b5	0.06956235
212	0xbdbd17e4	-0.092330724
213	0xbea9f0a2	-0.331914
214	0xbd43cd6a	-0.04780332
215	0x3c8a02f1	0.016847106
216	0xbe1969b7	-0.14981733
217	0xbea1c859	-0.31598166
218	0xbeb61a98	-0.35567164
219	0x3e5224bf	0.2052183
220	0xbd8b0612	-0.06788267
221	0x3e97ebd4	0.2967211
222	0xbe8dd072	-0.27698094
223	0xbd38d473	-0.045124482
224	0xbdf8ed3b	-0.12154623
225	0xbd2272cc	-0.03966026
226	0xbe8ce17d	-0.27515784
227	0xbe4b7a99	-0.19870986
228	0xbc4a0c45	-0.012332027
229	0xbe2d9507	-0.1695138
230	0xbe14016c	-0.14453667
231	0x3eb0cbd8	0.3453052
232	0xbdd45617	-0.10367983
233	0xbe298730	-0.16555476
234	0x3e9611f0	0.2931056
235	0xbe935d26	-0.28782004
236	0xbe103ac7	-0.14084922
237	0xbe04bee2	-0.12963441
238	0x3ebf3e9b	0.37352452
239	0xbe477430	-0.19477916
240	0xbe6397f5	-0.22225936
241	0xbd2e1921	-0.042504434
242	0x3e0f0541	0.13966848
243	0xbf8ab958	-1.0837812
244	0x3d69fdaa	0.05712668
245	0x3e1acc6d	0.15117045
246	0xbe394311	-0.1809199
247	0xbe47de6d	-0.19518442
248	0x3d9c138f	0.07620918
249	0x3ccec943	0.025242453
250	0x3e9a95d4	0.30192435
251	0xbe343951	-0.1759999
252	0x3d0bef82	0.03416396
253	0x3e9ae046	0.30249232
254	0xbec16e13	-0.37779292
255	0xbf21ee5a	-0.6325432

problem_embedding.bias f4 [64]
0	0xbe40dc26	-0.1883398
1	0xbdc8d0c4	-0.09805444
2	0xbe339dde	-0.1754069
3	0xbe5755d8	-0.2102884
4	0x3d2cbe3c	0.04217361
5	0x3ebca575	0.36844984
6	0xbc321045	-0.010868137
7	0x3cf8ebe5	0.03038592
8	0xbeaa3189	-0.33240917
9	0x3e1a32af	0.15058397
10	0xbe16fe56	-0.14745459
11	0xbdba7b46	-0.09105544
12	0xbe182de1	-0.14861251
13	0xbead4232	-0.33839566
14	0xbdebe11f	-0.11517548
15	0x3e84ec7f	0.25961682
16	0x3e36a8d6	0.17837843
17	0xbdf269dc	-0.11836597
18	0xbe8769d9	-0.26447943
19	0xbe2f10cc	-0.17096251
20	0x3d9a0226	0.07519941
21	0xbe2654a8	-0.16243231
22	0xbe2dd5fb	-0.16976158
23	0x3eb42996	0.35187978
24	0xbe9ead31	-0.3099151
25	0xbe9fbb96	-0.31197804
26	0xbebfbbed	-0.37448063
27	0xbe836883	-0.25665674
28	0xbe44fc80	-0.19236946
29	0x3cf0bec9	0.029387848
30	0x3d70a45d	0.0587505
31	0xbe1e2ebe	-0.15447518
32	0x3dc09d11	0.09404958
33	0x3dfec655	0.124401726
34	0x3df4de77	0.11956494
35	0x3dc4e09e	0.09613155
36	0xbe88fc4b	-0.26754984
37	0xbdad3fae	-0.084594116
38	0xbe17747a	-0.14790526
39	0x3e058ed6	0.13042769
40	0x3e864433	0.26223907
41	0xbdea869c	-0.11451456
42	0xbe24cc1d	-0.16093488
43	0x3e9f46d9	0.3110874
44	0xbe39876d	-0.18118067
45	0xbdbba935	-0.09163133
46	0x3d780533	0.060551833
47	0x3ec24e1e	0.37950224
48	0xbf00d2a7	-0.5032143
49	0x3e601de9	0.2188641
50	0xbe7105ac	-0.2353732
51	0x3e135398	0.14387357
52	0xbd938e30	-0.072048545
53	0xbeb2bf47	-0.34911558
54	0x3d2bb0e7	0.041916754
55	0x3d93a676	0.07209484
56	0xbe9895ea	-0.29801875
57	0xbe333006	-0.17498788
58	0x3e2631d4	0.16229945
59	0xbe56b3cf	-0.20967029
60	0xbc2f5d98	-0.010703467
61	0xbe7fa1c0	-0.24964046
62	0x3d155793	0.03646047
63	0x3e802ffb	0.25036606

fc1.weight f4 [128, 128]
0	0xbc109264	-0.008823965
1	0xbcd850c3	-0.026405698
2	0x3d43271b	0.047644716
3	0xbe06ad83	-0.13152127
4	0xbd1fd3fb	-0.03902052
5	0xbdc7e90c	-0.09761247
6	0x3c0af985	0.008482342
7	0xbd8438c8	-0.06456143
8	0xbd63a896	-0.055580698
9	0x3caff9ef	0.021481482
10	0x3c957eef	0.018249003
11	0xbc86ae0f	-0.01644042
12	0x3cbe2682	0.023211721
13	0xbd073641	-0.033010725
14	0xbb71bd14	-0.003688638
15	0xbd4e4b43	-0.050364744
16	0x3cd552df	0.026040493
17	0x3da1b7f7	0.07896417
18	0x3db45974	0.08806124
19	0xbd4392f8	-0.047747582
20	0x3a703f40	0.00091646984
21	0x3d82b86c	0.06382832
22	0x3cd7bb75	0.026334504
23	0x3cecb21f	0.028893529
24	0xbb90b8af	-0.0044165473
25	0x3d423fa9	0.047423992
26	0xbc85c13e	-0.016327497
27	0xbd9565c6	-0.07294802
28	0x3d51f240	0.05125642
29	0xbcb7289d	-0.022358233
30	0xbd9544cd	-0.07288513
31	0xbdade263	-0.084904455
32	0xbc9da45a	-0.019243408
33	0x3daa926c	0.08328709
34	0x3cf07ae6	0.029355478
35	0x3dacf46f	0.084450595
36	0x3d538e38	0.051649302
37	0x3c8a735a	0.016900707
38	0x3d915695	0.07096592
39	0xbd1cf916	-0.038323484
40	0xbdd3ad97	-0.10335844
41	0xbdadad94	-0.08480373
42	0xbd91b304	-0.07114223
43	0xbdb28391	-0.087165006
44	0x3d10dc9b	0.035366636
45	0x3ca93191	0.020653518
46	0xbc672357	-0.014107547
47	0x3d96e223	0.07367351
48	0xbd18a075	-0.0372624
49	0xbdd12f96	-0.102141544
50	0x3d0373d4	0.032092884
51	0xbd96d7e3	-0.07365396
52	0xbdef91d1	-0.11697734
53	0x3cf18604	0.029482849
54	0xbdb67094	-0.08908191
55	0x3cd2f840	0.02575314
56	0xbd8ff36c	-0.07028851
57	0xbcdb7bc3	-0.026792413
58	0xbdf58dd7	-0.119899444
59	0xbda83227	-0.08212691
60	0x3cf9208b	0.030411026
61	0xbddd2982	-0.107989326
62	0xbd05e155	-0.032685596
63	0x3d4e7022	0.050399907
64	0x3c1c2661	0.009530635
65	0x3d11bc09	0.035579715
66	0xbdbb0dc5	-0.09133486
67	0x3c598c15	0.013278027
68	0xba037b74	-0.00050156494
69	0x3dc2b332	0.09506835
70	0xbd93878d	-0.07203589
71	0xbdb64d65	-0.089014806
72	0xbaddbf6f	-0.0016918014
73	0x3d7ecc47	0.062206533
74	0xbda43a9e	-0.08018993
75	0xbd9dca66	-0.0770462
76	0xbdb586c2	-0.08863594
77	0xbdbc4153	-0.09192147
78	0xbde3777a	-0.11106773
79	0x3db16484	0.0866175
80	0x3cc34eb4	0.02384124
81	0xbcf85239	-0.030312644
82	0x3cc757aa	0.024333794
83	0xbd29a90d	-0.041420985
84	0x3d462825	0.04837813
85	0xbc52b34e	-0.012860132
86	0x3d935373	0.07193651
87	0x3d4a1cea	0.04934398
88	0x3d4f476d	0.050605226
89	0xbd474256	-0.048647247
90	0xbd85a908	-0.06526381
91	0x3c5dde95	0.013541837
92	0x3d3cbf6d	0.046080995
93	0xbdf1a073	-0.117981814
94	0xbdaba3b5	-0.08380834
95	0xbdb042bd	-0.08606479
96	0xbc6ab20d	-0.014324677
97	0x3dab682c	0.083694786
98	0x3d1b7bbf	0.03795981
99	0x3d0dacc1	0.03458858
100	0xbd010f57	-0.03150877
101	0xbbfa41e9	-0.0076372516
102	0xbd6a3fbb	-0.057189684
103	0x3d152ef1	0.03642172
104	0x3d65fdbd	0.056150187
105	0x3d8b80b2	0.06811656
106	0xbba0e7d4	-0.0049104486
107	0xbcf40cf9	-0.029791342
108	0x3d50689f	0.050881024
109	0xbcfbd574	-0.03074143
110	0x3e0b77af	0.13619874
111	0x3d582536	0.052769862
112	0x3bd6f66c	0.0065601375
113	0xbd7c0aa1	-0.061533574
114	0xbd705a71	-0.05868
115	0xbcde4938	-0.027134523
116	0xbc75107e	-0.014957545
117	0xbd4b84e0	-0.049687266
118	0xbd5d26eb	-0.053992193
119	0xbda28e71	-0.07937325
120	0x3d473389	0.048633132
121	0xbd3416ec	-0.043967173
122	0xbd9a75bf	-0.075419895
123	0xbd64af6c	-0.055831358
124	0x3c976f61	0.018485727
125	0x3c4e0b59	0.012575948
126	0x3d3d86f3	0.046271276
127	0xbe0700f2	-0.13183954
128	0x3cc84e25	0.024451325
129	0xbc5ef8c4	-0.013609115
130	0x3da7e368	0.08197671
131	0x3caf9ac9	0.021436112
132	0xbceac890	-0.028660089
133	0xbb00bef8	-0.0019645076
134	0x3daa84f4	0.0832614
135	0xbc8d3ab7	-0.017239911
136	0x3d5766d6	0.052588306
137	0xbd694953	-0.056954693
138	0xbd0a43af	-0.033755954
139	0xbc42be05	-0.0118861245
140	0x3df87d58	0.121332824
141	0xbd6d6730	-0.057959735
142	0x3dceab06	0.10091214
143	0xbb07284e	-0.0020623389
144	0xbd2e763c	-0.042593226
145	0x3cee4384	0.029084928
146	0x3d46089e	0.04834806
147	0xbc89fca5	-0.016844103
148	0x3d93d2df	0.07217955
149	0x3c5da7ab	0.013528745
150	0xbcebcd53	-0.02878443
151	0xbde059bd	-0.10954616
152	0x3c700191	0.014648811
153	0x3da50c78	0.08059019
154	0x3db93536	0.09043352
155	0x3c69eb0d	0.014277232
156	0x3db47e7f	0.0881319
157	0x3db730c2	0.08944847
158	0x3d61bb43	0.055110227
159	0xbd9e5334	-0.077307135
160	0x3c39eb3f	0.011347591
161	0xbd987158	-0.074434936
162	0xbd865d85	-0.06560806
163	0xbd382ba0	-0.04496348
164	0xbccec298	-0.025239274
165	0x3d5a64d2	0.053318806
166	0x3d6a8b4f	0.05726176
167	0xbcafbc3b	-0.02145206
168	0xbdac13cd	-0.08402214
169	0xbd1ba36f	-0.03799766
170	0x3d6a1413	0.05714805
171	0x3cacbf2a	0.021087248
172	0xbde948e0	-0.11390853
173	0xbbb799d3	-0.005603054
174	0x3c28a0e2	0.010292264
175	0x3d511c00	0.051052094
176	0x3cb9feab	0.022704443
177	0x3d5b8ab0	0.05359906
178	0xbd59c757	-0.05316862
179	0x3b717bcd	0.0036847473
180	0xbdbe4a60	-0.0929153
181	0x3d9d6011	0.07684339
182	0x3d024a05	0.03180887
183	0x3db35935	0.08757249
184	0xbd83cd47	-0.06435638
185	0x3df8ee2b	0.12154802
186	0x3c9c0643	0.019045955
187	0xbdd37a98	-0.10326117
188	0xbda5649d	-0.08075831
189	0x3d279077	0.040909257
190	0xbb96e007	-0.004604343
191	0x3d4889d6	0.048959576
192	0xbbe3ef6e	-0.0069560325
193	0x3d62c1ea	0.055360712
194	0xbdc48c8f	-0.09597122
195	0xbdd2227f	-0.10260486
196	0xbf397b8d	-0.7245415
197	0xbe5575bb	-0.20845692
198	0xbe30b98f	-0.17258285
199	0xbd81f32b	-0.06345209
200	0x3cfbf646	0.03075708
201	0xbc72e133	-0.0148241995
202	0x3daf6a49	0.08565194
203	0xbb5c89df	-0.0033651514
204	0xbee0bf99	-0.43896177
205	0xbc4cfb44	-0.012511078
206	0xbd9d0157	-0.07666271
207	0xbe42c15b	-0.19019072
208	0x3d41e236	0.047334872
209	0x3cb21f9d	0.02174359
210	0xbeef7e27	-0.46775934
211	0xbdb64b4e	-0.08901082
212	0xbd975ea0	-0.07391095
213	0x3d87add3	0.06624951
214	0xbbc95383	-0.0061439886
215	0xbdf43445	-0.11924032
216	0xbe77ba19	-0.24192084
217	0x3d2919a3	0.041284215
218	0xbdee8798	-0.11646956
219	0xbcd26dc5	-0.025687108
220	0xbe29b8f5	-0.16574462
221	0x3d8419c0	0.06450224
222	0x3c216e54	0.009852964
223	0xbd6afe95	-0.057371695
224	0xbbef6059	-0.0073051867
225	0xbca63b74	-0.020292021
226	0xbe333443	-0.17500405
227	0xbcf185c0	-0.029482722
228	0xbd9efcd4	-0.07763067
229	0x3e14228f	0.14466308
230	0x3abe583c	0.0014522146
231	0xbcb5ec22	-0.022207323
232	0x3db652d6	0.089025185
233	0xbdecd8ba	-0.11564775
234	0xbe08369b	-0.1330208
235	0x3bf94bd5	0.007607917
236	0x3bd5e114	0.0065270755
237	0xbdb282d9	-0.087163635
238	0xbf3a1298	-0.7268462
239	0xbf1714c1	-0.5901604
240	0xbde1be58	-0.11022633
241	0xbd82e915	-0.06392113
242	0xbe34bbf5	-0.17649825
243	0xbf1c4d46	-0.6105541
244	0xbda2cc12	-0.079490796
245	0xbcaa7a57	-0.02081029
246	0xbe1e1af0	-0.15439963
247	0xbc1dbe92	-0.009627955
248	0x3ced451b	0.028963616
249	0xbd672eef	-0.056441244
250	0x3b52d5b1	0.0032170827
251	0x3c0e55a5	0.008687411
252	0xbeeabd73	-0.45847663
253	0xbcc2435d	-0.023713762
254	0xbd2d9693	-0.042379927
255	0xbef8c089	-0.48584393

fc1.bias f4 [128]
0	0xbdd3fd86	-0.1035109
1	0xbd0fc1ac	-0.03509681
2	0xbda7f355	-0.08200709
3	0xbc7b5299	-0.015339517
4	0x3d237144	0.03990294
5	0xbdd21d42	-0.10259487
6	0x386775de	5.5184464e-05
7	0xbe2e1e28	-0.17003691
8	0xbe18b632	-0.14913252
9	0xbd4b8cb5	-0.049694736
10	0xbaaa10ea	-0.0012975011
11	0xbd089b46	-0.033351205
12	0x3c91b621	0.017787041
13	0xbba287b3	-0.0049600243
14	0xbce4dd63	-0.027937597
15	0xbd1d33e6	-0.038379572
16	0x3b075274	0.002064851
17	0xbda74bd6	-0.081687614
18	0x3d7b7090	0.061386645
19	0xbc4de7e5	-0.012567495
20	0x3cdc3237	0.026879413
21	0xbd9ce9d1	-0.076617844
22	0x3dab726a	0.08371432
23	0xbd90a71c	-0.070631236
24	0x3df55398	0.11978835
25	0x3d3743ce	0.044742398
26	0xbd8d52b6	-0.069005415
27	0xbd80d69a	-0.06290932
28	0x3d3548d9	0.044258926
29	0xbd7ba276	-0.06143423
30	0x3dac9436	0.084267065
31	0xbd5833b9	-0.0527837
32	0x3cf75f09	0.030196683
33	0x3bb2c214	0.005455265
34	0xbb31933c	-0.0027095815
35	0xbc0ffa5a	-0.008787716
36	0xbd80a8ec	-0.06282219
37	0xbd55fd87	-0.052243736
38	0xbce995fc	-0.028513901
39	0xbd5bec86	-0.053692363
40	0xbd78f9a3	-0.060784947
41	0xbc3cf398	-0.011532687
42	0x3c24d236	0.010059884
43	0xbc8f1de1	-0.017470302
44	0x3d7e0979	0.062020753
45	0xbdb50758	-0.08839291
46	0x3d2e72ee	0.042590074
47	0xbd62cec3	-0.055372965
48	0x3d9e0648	0.07716042
49	0x3ce1d1d5	0.027565876
50	0x3d01b96f	0.031670984
51	0xbd915311	-0.07095922
52	0x3c5bf162	0.013424249
53	0xbde65afb	-0.11247822
54	0xbdb2cbc3	-0.08730271
55	0x3d652962	0.05594767
56	0xbd33c6c0	-0.043890715
57	0x3e05142a	0.12995973
58	0x3ddfcde4	0.109279424
59	0x3d8041f0	0.062625766
60	0x3a3deea3	0.00072453375
61	0xbd4e6175	-0.05038591
62	0xbd8f22ae	-0.069890365
63	0xbdb25a23	-0.087085985
64	0xbd3d00fe	-0.046143524
65	0xbd8e0046	-0.06933646
66	0x3ce7f50a	0.028315086
67	0xbd4774d5	-0.048695404
68	0xbd9f61df	-0.07782339
69	0xbdd383a7	-0.10327845
70	0xbdab3d95	-0.08361355
71	0x3d136231	0.035982314
72	0xbdecbbce	-0.115592584
73	0xbddb7a7d	-0.10716722
74	0xbe0c56c5	-0.13704975
75	0xbda0b5cd	-0.07847176
76	0x3b3ed8b2	0.002912086
77	0xbd8d8985	-0.069109954
78	0x3db27047	0.087128215
79	0xbc9571e9	-0.018242793
80	0x3ca15e1f	0.0196982
81	0xbdc8d0f7	-0.09805482
82	0x3d61a802	0.055091865
83	0x3d27d136	0.040971003
84	0x3ba614cf	0.0050683985
85	0x3da3e7ff	0.08003234
86	0xbd95310d	-0.07284746
87	0xbd93d9f5	-0.072193064
88	0xbd12d6b9	-0.035849307
89	0xbdc3d29b	-0.09561654
90	0xbd08f444	-0.033436075
91	0xbdd4a892	-0.10383715
92	0xbd510c7a	-0.05103729
93	0xbd038ece	-0.03211861
94	0x3dc7243f	0.0972371
95	0xbde6a652	-0.11262192
96	0xbcf69092	-0.030098233
97	0xbd332f44	-0.043746248
98	0x3cd74f7c	0.026283018
99	0x3d915435	0.07096139
100	0xbdeb06ae	-0.114758834
101	0xbdf632ee	-0.12021433
102	0x3c8b51d4	0.017006792
103	0xbe00aa56	-0.12564978
104	0xbd75b9b1	-0.059991542
105	0xbc12aa13	-0.008951682
106	0xbd9e402d	-0.07727084
107	0xbc013b9d	-0.007887748
108	0xbd570347	-0.05249336
109	0xbd7cd7e9	-0.061729345
110	0xbc54ce7c	-0.012988683
111	0xbd79f69e	-0.061026208
112	0xbc9c3867	-0.019069863
113	0x3bc2f58d	0.005949682
114	0xbdf56661	-0.11982418
115	0xbdefaeb2	-0.11703242
116	0x3d6b2927	0.057412293
117	0x3b1dd61b	0.0024083916
118	0xbd97aff6	-0.07406609
119	0xbd90b3b8	-0.07065529
120	0xbcc44406	-0.023958217
121	0x3d6b590d	0.057457972
122	0x3d18bee2	0.037291415
123	0x3e0501a0	0.12988901
124	0xbcefea16	-0.029286426
125	0xbc73611b	-0.014854695
126	0x3c80214e	0.01564088
127	0xbdf149da	-0.11781664

fc2.weight f4 [64, 128]
0	0x3cba95b0	0.022776455
1	0xbd820cd2	-0.063501015
2	0x3dac4866	0.084122464
3	0x3c4b6b29	0.012415686
4	0x3d933415	0.07187668
5	0xbcb63044	-0.022239812
6	0x3e4125cd	0.18862076
7	0xbde01575	-0.109415926
8	0x3d30cf7e	0.04316663
9	0xbd87c53c	-0.06629416
10	0xbba9155d	-0.0051600174
11	0x3e472577	0.19447885
12	0x3ce61e9f	0.028090773
13	0xbdad0cc9	-0.08449704
14	0x3cf6eca4	0.030142136
15	0x3da89a8a	0.08232601
16	0xbcafb8bb	-0.021450391
17	0xbe04c4ef	-0.12965749
18	0xbc0d5e29	-0.008628407
19	0x3cf296a8	0.029612854
20	0xbd46a3a1	-0.048495892
21	0xbcf60cec	-0.030035459
22	0x3e0a1351	0.13483931
23	0xbd4d8ed4	-0.05018504
24	0x3d32b55d	0.043629993
25	0x3b9fcab2	0.004876458
26	0xbd842780	-0.064528465
27	0xbca8412f	-0.020538894
28	0xbdcaa1e5	-0.0989416
29	0x3aa6b16d	0.0012717672
30	0x3d8c34a4	0.06845978
31	0x3be9870b	0.007126694
32	0xbdb5bdd3	-0.08874097
33	0xbd86374f	-0.06553518
34	0x3d823a63	0.06358793
35	0xbc86ae2a	-0.01644047
36	0x3c7ab3a9	0.015301623
37	0x3ba339b4	0.004981244
38	0x3d8a6f47	0.06759506
39	0x3da28675	0.07935802
40	0x3c156f57	0.009120784
41	0xbcddb013	-0.027061498
42	0x3d00f4a6	0.031483315
43	0x3e475700	0.19466782
44	0x3d4b60ab	0.049652737
45	0x3d330146	0.043702386
46	0xbe0332e6	-0.12812385
47	0xbd501194	-0.050798014
48	0xbd033ed7	-0.03204235
49	0x3e055e70	0.13024306
50	0x3da33c2d	0.07970462
51	0x3d43f03b	0.047836524
52	0xbaa73711	-0.00127575
53	0x3bba9718	0.0056942813
54	0xbd3eac61	-0.046551112
55	0x3e1fb2b6	0.15595517
56	0x3c90caf6	0.017674904
57	0x3dffcc72	0.12490167
58	0x3e58a399	0.21156158
59	0x3b154495	0.0022776474
60	0xbca85540	-0.020548463
61	0xb9bfa311	-0.00036551853
62	0x3d687ec7	0.05676153
63	0xbd3b617e	-0.045747273
64	0xbdd8be34	-0.10583153
65	0xbd3b7fd4	-0.045776203
66	0xbd227480	-0.039661884
67	0xbdd9ee09	-0.10641105
68	0x3d52d7df	0.051475402
69	0x3c3dbc48	0.011580534
70	0x3d1aa340	0.037753344
71	0xbb370a8d	-0.0027929873
72	0xbd6e5fe8	-0.058196932
73	0xbd9eed1c	-0.07760069
74	0x3d247816	0.040153585
75	0xbdc49a51	-0.09599746
76	0xbdb27523	-0.08713748
77	0x3c3f0c5d	0.0116606625
78	0x3d79b4f2	0.06096358
79	0x3d9f598d	0.07780752
80	0x3e2dfab8	0.16990173
81	0x3d39816b	0.04528944
82	0xbb1ac0b3	-0.0023613393
83	0xbd4e8bce	-0.050426297
84	0x3dc63ebd	0.09679935
85	0x3d012429	0.031528626
86	0xbdf42712	-0.119215146
87	0x3d931c16	0.07183091
88	0xbd824197	-0.063601665
89	0xba0d15c0	-0.0005381964
90	0xbc32f8dc	-0.0109235905
91	0xbd871a0f	-0.06596767
92	0xbbaa5668	-0.0051982887
93	0x3da3a0e9	0.079896756
94	0x3d0bfc99	0.034176443
95	0xbcc5c6e6	-0.024142694
96	0x3e7c459d	0.2463593
97	0x3b0e6bca	0.0021731728
98	0xbdbd6d92	-0.092494145
99	0x3de48426	0.11158018
100	0xbcbf70a6	-0.023369145
101	0xbcbc8153	-0.023010885
102	0x3c81f4f2	0.01586387
103	0x3d8fa290	0.07013428
104	0xbbf7f829	-0.007567425
105	0xbd28e3c0	-0.041232824
106	0x3cdb774c	0.026790284
107	0x3dcdc78a	0.10047825
108	0xbe095bd8	-0.13413942
109	0x3d0752b0	0.03303784
110	0x3dad397b	0.08458229
111	0xbe0a7ba6	-0.1352373
112	0x3e606e97	0.21917187
113	0x3d48fe51	0.04907066
114	0x3d0d6f8c	0.034530208
115	0xbd4a942f	-0.049457725
116	0x3ca4f02b	0.020134052
117	0xbc4a936a	-0.012364248
118	0x3e10ddaa	0.14147058
119	0xbdae8a3f	-0.08522462
120	0xbd8f932d	-0.070104934
121	0xbc4f67da	-0.0126590375
122	0xbd90ab9e	-0.070639834
123	0xbb7bd57b	-0.0038426805
124	0x3cfc3881	0.030788662
125	0x3cd5469f	0.026034651
126	0xbd475a3b	-0.048670035
127	0xbb493ce4	-0.003070646
128	0xbdf88b19	-0.12135906
129	0x3db527db	0.088454925
130	0xbd602a3e	-0.054727785
131	0xbd7768ab	-0.060402554
132	0xbce29ff4	-0.027664162
133	0xbc142893	-0.009042877
134	0x3e3189be	0.173377
135	0xbd6a7c4b	-0.05724744
136	0x3d70d792	0.058799334
137	0xbd291642	-0.041280992
138	0x3da1e056	0.07904117
139	0x3e38e154	0.18054706
140	0xbd3044ce	-0.043034367
141	0x3d520fb2	0.0512845
142	0x3d4e3d66	0.050351523
143	0x3e5a5772	0.2132242
144	0xbd18f55c	-0.037343368
145	0xbe0655a4	-0.13118607
146	0xbd2398b2	-0.039940543
147	0xbd740a7c	-0.05958031
148	0x3d03a304	0.032137886
149	0x3b133504	0.002246202
150	0x3c65a9cb	0.014017533
151	0xbdc0b7b3	-0.09410038
152	0xbd8290c9	-0.06375272
153	0xbd6af0d2	-0.05735857
154	0xbe2f11f8	-0.17096698
155	0x3d1c3016	0.038131796
156	0x3d1d5364	0.038409606
157	0xbd4e2944	-0.050332323
158	0x3df58449	0.11988122
159	0x3dbebd3a	0.09313436
160	0xbd16b471	-0.036793176
161	0x3cabd7a2	0.020976845
162	0xbdc2e5bf	-0.09516477
163	0x3db77bb8	0.08959144
164	0x3d47b3b5	0.048755366
165	0x3dd4d62a	0.10392411
166	0xbd8e3caf	-0.06945168
167	0x3e53c726	0.20681438
168	0x3d7ff743	0.062491667
169	0x3d29fa4b	0.041498464
170	0x3d978a1e	0.07399391
171	0x3e96b611	0.2943578
172	0xbc0215bb	-0.007939751
173	0xbd8553b5	-0.065101065
174	0xbdf0218c	-0.117251486
175	0xbbb7a808	-0.0056047477
176	0x3cb619a0	0.022229016
177	0x3cd366bd	0.025805825
178	0x3dc1a6c3	0.094556354
179	0xbd937dce	-0.0720173
180	0x3d5bbb40	0.053645372
181	0x3c9a3160	0.018822372
182	0xbd32ba9b	-0.043634992
183	0xbd948707	-0.07252317
184	0xbdb4c654	-0.088268906
185	0x3e27dcdb	0.16392843
186	0x3e0df87d	0.13864322
187	0xbdab325b	-0.08359214
188	0xbc864dfc	-0.016394608
189	0x3c58b4d4	0.013226707
190	0xbd3dd6bc	-0.046347365
191	0xbdba66e0	-0.09101653
192	0x3df7f944	0.121080905
193	0x3d05b83e	0.03264641
194	0x3d5ec88c	0.054390475
195	0x3dddeb07	0.108358435
196	0xbc53bb99	-0.012923145
197	0x3da223f1	0.079170115
198	0xbd310fec	-0.043228075
199	0x3b762f8b	0.003756496
200	0xbdbc9a8c	-0.09209165
201	0xbc629651	-0.013829784
202	0x3d683c00	0.056697845
203	0x3c8f469e	0.017489728
204	0xbc8ced48	-0.017202988
205	0xbdd49a82	-0.103810325
206	0x3d151464	0.0363964
207	0xbccc3c28	-0.024931028
208	0x3e57612b	0.2103316
209	0xbde8dd56	-0.113703415
210	0xbd6d9dff	-0.058012005
211	0x3d9e8327	0.07739859
212	0x3c3e6cef	0.0116226515
213	0x3d3eae55	0.046552975
214	0x3d713723	0.058890473
215	0xbd1d615e	-0.038422935
216	0xbd736904	-0.059426323
217	0x3d8accc0	0.06777334
218	0xbd93f8a8	-0.07225162
219	0xbdc3be4e	-0.09557782
220	0x3b3f85f0	0.002922412
221	0xbdf83cbe	-0.12120961
222	0x3cab3a15	0.02090172
223	0xbd03022e	-0.0319845
224	0x3eaa635e	0.33278936
225	0xbda8f19a	-0.08249207
226	0x3d8fa936	0.07014696
227	0x3cfc298c	0.03078153
228	0xbc4d4164	-0.012527797
229	0xbd31586d	-0.04329722
230	0xbd95df7f	-0.07318019
231	0xbdfde8e4	-0.12397936
232	0xbb20eb5f	-0.0024554355
233	0xbdb5aebb	-0.08871218
234	0x3d23319f	0.039842244
235	0xbe6a4420	-0.2287755
236	0xbcf63d09	-0.0300584
237	0x3ce063d3	0.02739135
238	0x3dcf2202	0.10113908
239	0xbd40c158	-0.047059387
240	0x3d8b9806	0.068161055
241	0xbdf2347a	-0.11826415
242	0x3d497414	0.049182966
243	0x3d68a5b1	0.05679864
244	0x3c0928fd	0.008371589
245	0x3e063b84	0.13108641
246	0x3d7389d4	0.059457615
247	0xbe670980	-0.22562218
248	0xbd33b125	-0.04387011
249	0xbca906d3	-0.020633137
250	0x3c1d9b40	0.009619534
251	0x3d995fa8	0.07488948
252	0xba89d0bd	-0.0010514479
253	0xbdaf56ef	-0.08561503
254	0xbd07d817	-0.033165064
255	0xbd8b2d53	-0.06795754

fc2.bias f4 [64]
0	0x3df145e9	0.117809124
1	0xbe3df4f3	-0.18550472
2	0x3e0c2957	0.13687645
3	0x3e2b477d	0.1672649
4	0x3a3377e4	0.0006846173
5	0x3e1b3532	0.15157011
6	0xbe425961	-0.18979408
7	0x3d873d1c	0.066034526
8	0x3d6e5032	0.05818195
9	0x3d8dd834	0.06926003
10	0x3e8269ef	0.25471446
11	0xbd47f69c	-0.04881917
12	0x3d33589e	0.043785684
13	0xbd760c08	-0.060070068
14	0xbdd0d904	-0.101976424
15	0x3da3785a	0.079819396
16	0xbd1ceba6	-0.03831067
17	0x3e609fb4	0.21935922
18	0xbdeb4f75	-0.114897646
19	0x3db3daa7	0.08781939
20	0xbccf62c3	-0.025315648
21	0xbdfaf011	-0.1225282
22	0xbd9b0e32	-0.07571067
23	0xbe029c21	-0.12754871
24	0xbe2633e0	-0.16230726
25	0xbd67bc7c	-0.056576237
26	0xbda84111	-0.082155354
27	0x3cd23749	0.025661128
28	0xbd80c3e1	-0.06287361
29	0x3d400060	0.046875358
30	0xbde649f5	-0.11244575
31	0xbd3f6588	-0.046727687
32	0x3da2d820	0.07951379
33	0xbd855c93	-0.06511798
34	0xbd9d1fef	-0.076721065
35	0x3d86fa31	0.06590689
36	0xbd902640	-0.070385456
37	0xbca71736	-0.02039681
38	0x3d173476	0.036915265
39	0xbdc4a1ba	-0.096011594
40	0xbdb6573d	-0.08903358
41	0xbe54333e	-0.20722672
42	0xbd1eec7b	-0.038799744
43	0xbcee688e	-0.02910259
44	0xbe217476	-0.15767083
45	0xbd98d5ba	-0.0746264
46	0x3dcc8295	0.09985844
47	0xbe1189cc	-0.14212722
48	0xbdb2ae27	-0.08724623
49	0x3e0c612a	0.1370894
50	0x3e0eb4b1	0.13936116
51	0x3e27f347	0.16401397
52	0xbd05da74	-0.032679036
53	0x3dcc64fe	0.099802
54	0x3e274906	0.1633645
55	0x3c32a09e	0.010902552
56	0x3dd38837	0.10328715
57	0x3ddfe202	0.109317794
58	0xbde33d90	-0.110957265
59	0x3da0d8bb	0.07853838
60	0x3d96e5a2	0.07368018
61	0x3d8cb4ac	0.06870398
62	0xbe38c842	-0.18045142
63	0xbdd8e3e6	-0.10590343

fc3.weight f4 [1, 64]
0	0xbd21ac8c	-0.039471194
1	0x3c1eae88	0.009685166
2	0xbc72b6f1	-0.014814124
3	0xbd8fe696	-0.07026403
4	0x3cfa7553	0.030573523
5	0xbcc63ff8	-0.024200425
6	0x3c684a42	0.014177861
7	0xbc87241c	-0.01649671
8	0x3d31ad37	0.04337808
9	0xbd92d456	-0.07169406
10	0xbcb7f910	-0.02245763
11	0xbbd0fd0a	-0.006377821
12	0x3d145242	0.03621126
13	0xbca0da57	-0.019635363
14	0x3a4b3f60	0.0007753279
15	0xbd6d4f1c	-0.057936773
16	0xbd022242	-0.031770952
17	0xbcc9284b	-0.024555346
18	0x3c549cf8	0.012976877
19	0xbcf5a561	-0.029986085
20	0x3b8cb179	0.0042936173
21	0x3cb4a2de	0.022050317
22	0x3bd38191	0.0064546545
23	0x3b210241	0.0024567994
24	0x3cf25448	0.029581204
25	0xbc1909a3	-0.0093406765
26	0x3c2aa263	0.010414693
27	0xbd1ebb85	-0.03875305
28	0x3bdf7772	0.006819659
29	0xbda951e3	-0.08267572
30	0x3c8c8a9c	0.017155938
31	0x3bd2edda	0.0064370455
32	0xbd1b1cb4	-0.03786917
33	0x3d31fe17	0.04345521
34	0x3cfcd8b6	0.030865055
35	0xbbfda936	-0.007741119
36	0xbd400c2a	-0.0468866
37	0x3bed2cf3	0.0072380244
38	0xbd05a2bf	-0.03262591
39	0x3b9fe83c	0.0048799794
40	0x3c15b4eb	0.0091373725
41	0x3c30cdfa	0.010791296
42	0xbb76e206	-0.0037671342
43	0x3d1756f2	0.036948152
44	0x3a8c7fcc	0.0010719239
45	0x3d0eb39b	0.034839254
46	0xbd02c577	-0.0319266
47	0x3c25a554	0.010110218
48	0x3cdaf9ea	0.026730496
49	0xbd2096ed	-0.039206434
50	0xbd0b1f65	-0.033965487
51	0xbcf7d850	-0.030254513
52	0x3d148e81	0.036268715
53	0xbd10d475	-0.035358865
54	0xbd847a91	-0.0646869
55	0xbd963d1a	-0.07335873
56	0xbdf45536	-0.11930315
57	0xbd0fe592	-0.035131045
58	0x3b455ae4	0.003011399
59	0x3d893046	0.066986606
60	0xbcd68685	-0.02618719
61	0xbc5f876e	-0.013643129
62	0xb99747ce	-0.00028854463
63	0x3d38ad36	0.04508706
